{"format": "graph-model", "generatedBy": "1.15.0-dev20190802", "convertedBy": "TensorFlow.js Converter v1.2.6", "modelTopology": {"node": [{"name": "sub_2", "op": "Placeholder", "attr": {"shape": {"shape": {"dim": [{"size": "1"}, {"size": "-1"}, {"size": "-1"}, {"size": "3"}]}}, "dtype": {"type": "DT_FLOAT"}}}, {"name": "resnet_v1_50/Pad/paddings", "op": "Const", "attr": {"dtype": {"type": "DT_INT32"}, "value": {"tensor": {"dtype": "DT_INT32", "tensorShape": {"dim": [{"size": "4"}, {"size": "2"}]}}}}}, {"name": "resnet_v1_50/conv1/weights", "op": "Const", "attr": {"value": {"tensor": {"dtype": "DT_FLOAT", "tensorShape": {"dim": [{"size": "7"}, {"size": "7"}, {"size": "3"}, {"size": "64"}]}}}, "dtype": {"type": "DT_FLOAT"}}}, {"name": "resnet_v1_50/conv1/Conv2D_bias", "op": "Const", "attr": {"value": {"tensor": {"dtype": "DT_FLOAT", "tensorShape": {"dim": [{"size": "64"}]}}}, "dtype": {"type": "DT_FLOAT"}}}, {"name": "resnet_v1_50/Pad_1/paddings", "op": "Const", "attr": {"value": {"tensor": {"dtype": "DT_INT32", "tensorShape": {"dim": [{"size": "4"}, {"size": "2"}]}}}, "dtype": {"type": "DT_INT32"}}}, {"name": "resnet_v1_50/block1/unit_1/bottleneck_v1/shortcut/weights", "op": "Const", "attr": {"value": {"tensor": {"dtype": "DT_FLOAT", "tensorShape": {"dim": [{"size": "1"}, {"size": "1"}, {"size": "64"}, {"size": "256"}]}}}, "dtype": {"type": "DT_FLOAT"}}}, {"name": "resnet_v1_50/block1/unit_1/bottleneck_v1/shortcut/Conv2D_bias", "op": "Const", "attr": {"value": {"tensor": {"dtype": "DT_FLOAT", "tensorShape": {"dim": [{"size": "256"}]}}}, "dtype": {"type": "DT_FLOAT"}}}, {"name": "resnet_v1_50/block1/unit_1/bottleneck_v1/conv1/weights", "op": "Const", "attr": {"dtype": {"type": "DT_FLOAT"}, "value": {"tensor": {"dtype": "DT_FLOAT", "tensorShape": {"dim": [{"size": "1"}, {"size": "1"}, {"size": "64"}, {"size": "64"}]}}}}}, {"name": "resnet_v1_50/block1/unit_1/bottleneck_v1/conv1/Conv2D_bias", "op": "Const", "attr": {"dtype": {"type": "DT_FLOAT"}, "value": {"tensor": {"dtype": "DT_FLOAT", "tensorShape": {"dim": [{"size": "64"}]}}}}}, {"name": "resnet_v1_50/block1/unit_1/bottleneck_v1/conv2/weights", "op": "Const", "attr": {"value": {"tensor": {"dtype": "DT_FLOAT", "tensorShape": {"dim": [{"size": "3"}, {"size": "3"}, {"size": "64"}, {"size": "64"}]}}}, "dtype": {"type": "DT_FLOAT"}}}, {"name": "resnet_v1_50/block1/unit_1/bottleneck_v1/conv2/Conv2D_bias", "op": "Const", "attr": {"value": {"tensor": {"dtype": "DT_FLOAT", "tensorShape": {"dim": [{"size": "64"}]}}}, "dtype": {"type": "DT_FLOAT"}}}, {"name": "resnet_v1_50/block1/unit_1/bottleneck_v1/conv3/weights", "op": "Const", "attr": {"value": {"tensor": {"dtype": "DT_FLOAT", "tensorShape": {"dim": [{"size": "1"}, {"size": "1"}, {"size": "64"}, {"size": "256"}]}}}, "dtype": {"type": "DT_FLOAT"}}}, {"name": "resnet_v1_50/block1/unit_1/bottleneck_v1/conv3/Conv2D_bias", "op": "Const", "attr": {"value": {"tensor": {"dtype": "DT_FLOAT", "tensorShape": {"dim": [{"size": "256"}]}}}, "dtype": {"type": "DT_FLOAT"}}}, {"name": "resnet_v1_50/block1/unit_2/bottleneck_v1/conv1/weights", "op": "Const", "attr": {"value": {"tensor": {"dtype": "DT_FLOAT", "tensorShape": {"dim": [{"size": "1"}, {"size": "1"}, {"size": "256"}, {"size": "64"}]}}}, "dtype": {"type": "DT_FLOAT"}}}, {"name": "resnet_v1_50/block1/unit_2/bottleneck_v1/conv1/Conv2D_bias", "op": "Const", "attr": {"value": {"tensor": {"dtype": "DT_FLOAT", "tensorShape": {"dim": [{"size": "64"}]}}}, "dtype": {"type": "DT_FLOAT"}}}, {"name": "resnet_v1_50/block1/unit_2/bottleneck_v1/conv2/weights", "op": "Const", "attr": {"dtype": {"type": "DT_FLOAT"}, "value": {"tensor": {"dtype": "DT_FLOAT", "tensorShape": {"dim": [{"size": "3"}, {"size": "3"}, {"size": "64"}, {"size": "64"}]}}}}}, {"name": "resnet_v1_50/block1/unit_2/bottleneck_v1/conv2/Conv2D_bias", "op": "Const", "attr": {"value": {"tensor": {"dtype": "DT_FLOAT", "tensorShape": {"dim": [{"size": "64"}]}}}, "dtype": {"type": "DT_FLOAT"}}}, {"name": "resnet_v1_50/block1/unit_2/bottleneck_v1/conv3/weights", "op": "Const", "attr": {"value": {"tensor": {"dtype": "DT_FLOAT", "tensorShape": {"dim": [{"size": "1"}, {"size": "1"}, {"size": "64"}, {"size": "256"}]}}}, "dtype": {"type": "DT_FLOAT"}}}, {"name": "resnet_v1_50/block1/unit_2/bottleneck_v1/conv3/Conv2D_bias", "op": "Const", "attr": {"value": {"tensor": {"dtype": "DT_FLOAT", "tensorShape": {"dim": [{"size": "256"}]}}}, "dtype": {"type": "DT_FLOAT"}}}, {"name": "resnet_v1_50/block1/unit_3/bottleneck_v1/conv1/weights", "op": "Const", "attr": {"value": {"tensor": {"dtype": "DT_FLOAT", "tensorShape": {"dim": [{"size": "1"}, {"size": "1"}, {"size": "256"}, {"size": "64"}]}}}, "dtype": {"type": "DT_FLOAT"}}}, {"name": "resnet_v1_50/block1/unit_3/bottleneck_v1/conv1/Conv2D_bias", "op": "Const", "attr": {"value": {"tensor": {"dtype": "DT_FLOAT", "tensorShape": {"dim": [{"size": "64"}]}}}, "dtype": {"type": "DT_FLOAT"}}}, {"name": "resnet_v1_50/block1/unit_3/bottleneck_v1/conv2/weights", "op": "Const", "attr": {"value": {"tensor": {"dtype": "DT_FLOAT", "tensorShape": {"dim": [{"size": "3"}, {"size": "3"}, {"size": "64"}, {"size": "64"}]}}}, "dtype": {"type": "DT_FLOAT"}}}, {"name": "resnet_v1_50/block1/unit_3/bottleneck_v1/conv2/Conv2D_bias", "op": "Const", "attr": {"dtype": {"type": "DT_FLOAT"}, "value": {"tensor": {"dtype": "DT_FLOAT", "tensorShape": {"dim": [{"size": "64"}]}}}}}, {"name": "resnet_v1_50/block1/unit_3/bottleneck_v1/conv3/weights", "op": "Const", "attr": {"value": {"tensor": {"dtype": "DT_FLOAT", "tensorShape": {"dim": [{"size": "1"}, {"size": "1"}, {"size": "64"}, {"size": "256"}]}}}, "dtype": {"type": "DT_FLOAT"}}}, {"name": "resnet_v1_50/block1/unit_3/bottleneck_v1/conv3/Conv2D_bias", "op": "Const", "attr": {"value": {"tensor": {"dtype": "DT_FLOAT", "tensorShape": {"dim": [{"size": "256"}]}}}, "dtype": {"type": "DT_FLOAT"}}}, {"name": "resnet_v1_50/block2/unit_1/bottleneck_v1/shortcut/weights", "op": "Const", "attr": {"dtype": {"type": "DT_FLOAT"}, "value": {"tensor": {"dtype": "DT_FLOAT", "tensorShape": {"dim": [{"size": "1"}, {"size": "1"}, {"size": "256"}, {"size": "512"}]}}}}}, {"name": "resnet_v1_50/block2/unit_1/bottleneck_v1/shortcut/Conv2D_bias", "op": "Const", "attr": {"value": {"tensor": {"dtype": "DT_FLOAT", "tensorShape": {"dim": [{"size": "512"}]}}}, "dtype": {"type": "DT_FLOAT"}}}, {"name": "resnet_v1_50/block2/unit_1/bottleneck_v1/conv1/weights", "op": "Const", "attr": {"dtype": {"type": "DT_FLOAT"}, "value": {"tensor": {"dtype": "DT_FLOAT", "tensorShape": {"dim": [{"size": "1"}, {"size": "1"}, {"size": "256"}, {"size": "128"}]}}}}}, {"name": "resnet_v1_50/block2/unit_1/bottleneck_v1/conv1/Conv2D_bias", "op": "Const", "attr": {"value": {"tensor": {"dtype": "DT_FLOAT", "tensorShape": {"dim": [{"size": "128"}]}}}, "dtype": {"type": "DT_FLOAT"}}}, {"name": "resnet_v1_50/block2/unit_1/bottleneck_v1/conv2/weights", "op": "Const", "attr": {"value": {"tensor": {"dtype": "DT_FLOAT", "tensorShape": {"dim": [{"size": "3"}, {"size": "3"}, {"size": "128"}, {"size": "128"}]}}}, "dtype": {"type": "DT_FLOAT"}}}, {"name": "resnet_v1_50/block2/unit_1/bottleneck_v1/conv2/Conv2D_bias", "op": "Const", "attr": {"value": {"tensor": {"dtype": "DT_FLOAT", "tensorShape": {"dim": [{"size": "128"}]}}}, "dtype": {"type": "DT_FLOAT"}}}, {"name": "resnet_v1_50/block2/unit_1/bottleneck_v1/conv3/weights", "op": "Const", "attr": {"dtype": {"type": "DT_FLOAT"}, "value": {"tensor": {"dtype": "DT_FLOAT", "tensorShape": {"dim": [{"size": "1"}, {"size": "1"}, {"size": "128"}, {"size": "512"}]}}}}}, {"name": "resnet_v1_50/block2/unit_1/bottleneck_v1/conv3/Conv2D_bias", "op": "Const", "attr": {"value": {"tensor": {"dtype": "DT_FLOAT", "tensorShape": {"dim": [{"size": "512"}]}}}, "dtype": {"type": "DT_FLOAT"}}}, {"name": "resnet_v1_50/block2/unit_2/bottleneck_v1/conv1/weights", "op": "Const", "attr": {"value": {"tensor": {"dtype": "DT_FLOAT", "tensorShape": {"dim": [{"size": "1"}, {"size": "1"}, {"size": "512"}, {"size": "128"}]}}}, "dtype": {"type": "DT_FLOAT"}}}, {"name": "resnet_v1_50/block2/unit_2/bottleneck_v1/conv1/Conv2D_bias", "op": "Const", "attr": {"value": {"tensor": {"dtype": "DT_FLOAT", "tensorShape": {"dim": [{"size": "128"}]}}}, "dtype": {"type": "DT_FLOAT"}}}, {"name": "resnet_v1_50/block2/unit_2/bottleneck_v1/conv2/weights", "op": "Const", "attr": {"value": {"tensor": {"dtype": "DT_FLOAT", "tensorShape": {"dim": [{"size": "3"}, {"size": "3"}, {"size": "128"}, {"size": "128"}]}}}, "dtype": {"type": "DT_FLOAT"}}}, {"name": "resnet_v1_50/block2/unit_2/bottleneck_v1/conv2/Conv2D_bias", "op": "Const", "attr": {"dtype": {"type": "DT_FLOAT"}, "value": {"tensor": {"dtype": "DT_FLOAT", "tensorShape": {"dim": [{"size": "128"}]}}}}}, {"name": "resnet_v1_50/block2/unit_2/bottleneck_v1/conv3/weights", "op": "Const", "attr": {"value": {"tensor": {"dtype": "DT_FLOAT", "tensorShape": {"dim": [{"size": "1"}, {"size": "1"}, {"size": "128"}, {"size": "512"}]}}}, "dtype": {"type": "DT_FLOAT"}}}, {"name": "resnet_v1_50/block2/unit_2/bottleneck_v1/conv3/Conv2D_bias", "op": "Const", "attr": {"value": {"tensor": {"dtype": "DT_FLOAT", "tensorShape": {"dim": [{"size": "512"}]}}}, "dtype": {"type": "DT_FLOAT"}}}, {"name": "resnet_v1_50/block2/unit_3/bottleneck_v1/conv1/weights", "op": "Const", "attr": {"value": {"tensor": {"dtype": "DT_FLOAT", "tensorShape": {"dim": [{"size": "1"}, {"size": "1"}, {"size": "512"}, {"size": "128"}]}}}, "dtype": {"type": "DT_FLOAT"}}}, {"name": "resnet_v1_50/block2/unit_3/bottleneck_v1/conv1/Conv2D_bias", "op": "Const", "attr": {"value": {"tensor": {"dtype": "DT_FLOAT", "tensorShape": {"dim": [{"size": "128"}]}}}, "dtype": {"type": "DT_FLOAT"}}}, {"name": "resnet_v1_50/block2/unit_3/bottleneck_v1/conv2/weights", "op": "Const", "attr": {"value": {"tensor": {"dtype": "DT_FLOAT", "tensorShape": {"dim": [{"size": "3"}, {"size": "3"}, {"size": "128"}, {"size": "128"}]}}}, "dtype": {"type": "DT_FLOAT"}}}, {"name": "resnet_v1_50/block2/unit_3/bottleneck_v1/conv2/Conv2D_bias", "op": "Const", "attr": {"value": {"tensor": {"dtype": "DT_FLOAT", "tensorShape": {"dim": [{"size": "128"}]}}}, "dtype": {"type": "DT_FLOAT"}}}, {"name": "resnet_v1_50/block2/unit_3/bottleneck_v1/conv3/weights", "op": "Const", "attr": {"value": {"tensor": {"dtype": "DT_FLOAT", "tensorShape": {"dim": [{"size": "1"}, {"size": "1"}, {"size": "128"}, {"size": "512"}]}}}, "dtype": {"type": "DT_FLOAT"}}}, {"name": "resnet_v1_50/block2/unit_3/bottleneck_v1/conv3/Conv2D_bias", "op": "Const", "attr": {"value": {"tensor": {"dtype": "DT_FLOAT", "tensorShape": {"dim": [{"size": "512"}]}}}, "dtype": {"type": "DT_FLOAT"}}}, {"name": "resnet_v1_50/block2/unit_4/bottleneck_v1/conv1/weights", "op": "Const", "attr": {"value": {"tensor": {"dtype": "DT_FLOAT", "tensorShape": {"dim": [{"size": "1"}, {"size": "1"}, {"size": "512"}, {"size": "128"}]}}}, "dtype": {"type": "DT_FLOAT"}}}, {"name": "resnet_v1_50/block2/unit_4/bottleneck_v1/conv1/Conv2D_bias", "op": "Const", "attr": {"value": {"tensor": {"dtype": "DT_FLOAT", "tensorShape": {"dim": [{"size": "128"}]}}}, "dtype": {"type": "DT_FLOAT"}}}, {"name": "resnet_v1_50/block2/unit_4/bottleneck_v1/conv2/weights", "op": "Const", "attr": {"dtype": {"type": "DT_FLOAT"}, "value": {"tensor": {"dtype": "DT_FLOAT", "tensorShape": {"dim": [{"size": "3"}, {"size": "3"}, {"size": "128"}, {"size": "128"}]}}}}}, {"name": "resnet_v1_50/block2/unit_4/bottleneck_v1/conv2/Conv2D_bias", "op": "Const", "attr": {"value": {"tensor": {"dtype": "DT_FLOAT", "tensorShape": {"dim": [{"size": "128"}]}}}, "dtype": {"type": "DT_FLOAT"}}}, {"name": "resnet_v1_50/block2/unit_4/bottleneck_v1/conv3/weights", "op": "Const", "attr": {"value": {"tensor": {"dtype": "DT_FLOAT", "tensorShape": {"dim": [{"size": "1"}, {"size": "1"}, {"size": "128"}, {"size": "512"}]}}}, "dtype": {"type": "DT_FLOAT"}}}, {"name": "resnet_v1_50/block2/unit_4/bottleneck_v1/conv3/Conv2D_bias", "op": "Const", "attr": {"value": {"tensor": {"dtype": "DT_FLOAT", "tensorShape": {"dim": [{"size": "512"}]}}}, "dtype": {"type": "DT_FLOAT"}}}, {"name": "resnet_v1_50/block3/unit_1/bottleneck_v1/shortcut/weights", "op": "Const", "attr": {"value": {"tensor": {"dtype": "DT_FLOAT", "tensorShape": {"dim": [{"size": "1"}, {"size": "1"}, {"size": "512"}, {"size": "1024"}]}}}, "dtype": {"type": "DT_FLOAT"}}}, {"name": "resnet_v1_50/block3/unit_1/bottleneck_v1/shortcut/Conv2D_bias", "op": "Const", "attr": {"value": {"tensor": {"dtype": "DT_FLOAT", "tensorShape": {"dim": [{"size": "1024"}]}}}, "dtype": {"type": "DT_FLOAT"}}}, {"name": "resnet_v1_50/block3/unit_1/bottleneck_v1/conv1/weights", "op": "Const", "attr": {"value": {"tensor": {"dtype": "DT_FLOAT", "tensorShape": {"dim": [{"size": "1"}, {"size": "1"}, {"size": "512"}, {"size": "256"}]}}}, "dtype": {"type": "DT_FLOAT"}}}, {"name": "resnet_v1_50/block3/unit_1/bottleneck_v1/conv1/Conv2D_bias", "op": "Const", "attr": {"dtype": {"type": "DT_FLOAT"}, "value": {"tensor": {"dtype": "DT_FLOAT", "tensorShape": {"dim": [{"size": "256"}]}}}}}, {"name": "resnet_v1_50/block3/unit_1/bottleneck_v1/conv2/weights", "op": "Const", "attr": {"value": {"tensor": {"dtype": "DT_FLOAT", "tensorShape": {"dim": [{"size": "3"}, {"size": "3"}, {"size": "256"}, {"size": "256"}]}}}, "dtype": {"type": "DT_FLOAT"}}}, {"name": "resnet_v1_50/block3/unit_1/bottleneck_v1/conv2/Conv2D_bias", "op": "Const", "attr": {"value": {"tensor": {"dtype": "DT_FLOAT", "tensorShape": {"dim": [{"size": "256"}]}}}, "dtype": {"type": "DT_FLOAT"}}}, {"name": "resnet_v1_50/block3/unit_1/bottleneck_v1/conv3/weights", "op": "Const", "attr": {"dtype": {"type": "DT_FLOAT"}, "value": {"tensor": {"dtype": "DT_FLOAT", "tensorShape": {"dim": [{"size": "1"}, {"size": "1"}, {"size": "256"}, {"size": "1024"}]}}}}}, {"name": "resnet_v1_50/block3/unit_1/bottleneck_v1/conv3/Conv2D_bias", "op": "Const", "attr": {"value": {"tensor": {"dtype": "DT_FLOAT", "tensorShape": {"dim": [{"size": "1024"}]}}}, "dtype": {"type": "DT_FLOAT"}}}, {"name": "resnet_v1_50/block3/unit_2/bottleneck_v1/conv1/weights", "op": "Const", "attr": {"dtype": {"type": "DT_FLOAT"}, "value": {"tensor": {"dtype": "DT_FLOAT", "tensorShape": {"dim": [{"size": "1"}, {"size": "1"}, {"size": "1024"}, {"size": "256"}]}}}}}, {"name": "resnet_v1_50/block3/unit_2/bottleneck_v1/conv1/Conv2D_bias", "op": "Const", "attr": {"value": {"tensor": {"dtype": "DT_FLOAT", "tensorShape": {"dim": [{"size": "256"}]}}}, "dtype": {"type": "DT_FLOAT"}}}, {"name": "resnet_v1_50/block3/unit_2/bottleneck_v1/conv2/weights", "op": "Const", "attr": {"value": {"tensor": {"dtype": "DT_FLOAT", "tensorShape": {"dim": [{"size": "3"}, {"size": "3"}, {"size": "256"}, {"size": "256"}]}}}, "dtype": {"type": "DT_FLOAT"}}}, {"name": "resnet_v1_50/block3/unit_2/bottleneck_v1/conv2/Conv2D_bias", "op": "Const", "attr": {"value": {"tensor": {"dtype": "DT_FLOAT", "tensorShape": {"dim": [{"size": "256"}]}}}, "dtype": {"type": "DT_FLOAT"}}}, {"name": "resnet_v1_50/block3/unit_2/bottleneck_v1/conv3/weights", "op": "Const", "attr": {"value": {"tensor": {"dtype": "DT_FLOAT", "tensorShape": {"dim": [{"size": "1"}, {"size": "1"}, {"size": "256"}, {"size": "1024"}]}}}, "dtype": {"type": "DT_FLOAT"}}}, {"name": "resnet_v1_50/block3/unit_2/bottleneck_v1/conv3/Conv2D_bias", "op": "Const", "attr": {"value": {"tensor": {"dtype": "DT_FLOAT", "tensorShape": {"dim": [{"size": "1024"}]}}}, "dtype": {"type": "DT_FLOAT"}}}, {"name": "resnet_v1_50/block3/unit_3/bottleneck_v1/conv1/weights", "op": "Const", "attr": {"value": {"tensor": {"dtype": "DT_FLOAT", "tensorShape": {"dim": [{"size": "1"}, {"size": "1"}, {"size": "1024"}, {"size": "256"}]}}}, "dtype": {"type": "DT_FLOAT"}}}, {"name": "resnet_v1_50/block3/unit_3/bottleneck_v1/conv1/Conv2D_bias", "op": "Const", "attr": {"dtype": {"type": "DT_FLOAT"}, "value": {"tensor": {"dtype": "DT_FLOAT", "tensorShape": {"dim": [{"size": "256"}]}}}}}, {"name": "resnet_v1_50/block3/unit_3/bottleneck_v1/conv2/weights", "op": "Const", "attr": {"value": {"tensor": {"dtype": "DT_FLOAT", "tensorShape": {"dim": [{"size": "3"}, {"size": "3"}, {"size": "256"}, {"size": "256"}]}}}, "dtype": {"type": "DT_FLOAT"}}}, {"name": "resnet_v1_50/block3/unit_3/bottleneck_v1/conv2/Conv2D_bias", "op": "Const", "attr": {"value": {"tensor": {"dtype": "DT_FLOAT", "tensorShape": {"dim": [{"size": "256"}]}}}, "dtype": {"type": "DT_FLOAT"}}}, {"name": "resnet_v1_50/block3/unit_3/bottleneck_v1/conv3/weights", "op": "Const", "attr": {"value": {"tensor": {"dtype": "DT_FLOAT", "tensorShape": {"dim": [{"size": "1"}, {"size": "1"}, {"size": "256"}, {"size": "1024"}]}}}, "dtype": {"type": "DT_FLOAT"}}}, {"name": "resnet_v1_50/block3/unit_3/bottleneck_v1/conv3/Conv2D_bias", "op": "Const", "attr": {"value": {"tensor": {"dtype": "DT_FLOAT", "tensorShape": {"dim": [{"size": "1024"}]}}}, "dtype": {"type": "DT_FLOAT"}}}, {"name": "resnet_v1_50/block3/unit_4/bottleneck_v1/conv1/weights", "op": "Const", "attr": {"value": {"tensor": {"dtype": "DT_FLOAT", "tensorShape": {"dim": [{"size": "1"}, {"size": "1"}, {"size": "1024"}, {"size": "256"}]}}}, "dtype": {"type": "DT_FLOAT"}}}, {"name": "resnet_v1_50/block3/unit_4/bottleneck_v1/conv1/Conv2D_bias", "op": "Const", "attr": {"value": {"tensor": {"dtype": "DT_FLOAT", "tensorShape": {"dim": [{"size": "256"}]}}}, "dtype": {"type": "DT_FLOAT"}}}, {"name": "resnet_v1_50/block3/unit_4/bottleneck_v1/conv2/weights", "op": "Const", "attr": {"value": {"tensor": {"dtype": "DT_FLOAT", "tensorShape": {"dim": [{"size": "3"}, {"size": "3"}, {"size": "256"}, {"size": "256"}]}}}, "dtype": {"type": "DT_FLOAT"}}}, {"name": "resnet_v1_50/block3/unit_4/bottleneck_v1/conv2/Conv2D_bias", "op": "Const", "attr": {"value": {"tensor": {"dtype": "DT_FLOAT", "tensorShape": {"dim": [{"size": "256"}]}}}, "dtype": {"type": "DT_FLOAT"}}}, {"name": "resnet_v1_50/block3/unit_4/bottleneck_v1/conv3/weights", "op": "Const", "attr": {"value": {"tensor": {"dtype": "DT_FLOAT", "tensorShape": {"dim": [{"size": "1"}, {"size": "1"}, {"size": "256"}, {"size": "1024"}]}}}, "dtype": {"type": "DT_FLOAT"}}}, {"name": "resnet_v1_50/block3/unit_4/bottleneck_v1/conv3/Conv2D_bias", "op": "Const", "attr": {"value": {"tensor": {"dtype": "DT_FLOAT", "tensorShape": {"dim": [{"size": "1024"}]}}}, "dtype": {"type": "DT_FLOAT"}}}, {"name": "resnet_v1_50/block3/unit_5/bottleneck_v1/conv1/weights", "op": "Const", "attr": {"dtype": {"type": "DT_FLOAT"}, "value": {"tensor": {"dtype": "DT_FLOAT", "tensorShape": {"dim": [{"size": "1"}, {"size": "1"}, {"size": "1024"}, {"size": "256"}]}}}}}, {"name": "resnet_v1_50/block3/unit_5/bottleneck_v1/conv1/Conv2D_bias", "op": "Const", "attr": {"value": {"tensor": {"dtype": "DT_FLOAT", "tensorShape": {"dim": [{"size": "256"}]}}}, "dtype": {"type": "DT_FLOAT"}}}, {"name": "resnet_v1_50/block3/unit_5/bottleneck_v1/conv2/weights", "op": "Const", "attr": {"value": {"tensor": {"dtype": "DT_FLOAT", "tensorShape": {"dim": [{"size": "3"}, {"size": "3"}, {"size": "256"}, {"size": "256"}]}}}, "dtype": {"type": "DT_FLOAT"}}}, {"name": "resnet_v1_50/block3/unit_5/bottleneck_v1/conv2/Conv2D_bias", "op": "Const", "attr": {"value": {"tensor": {"dtype": "DT_FLOAT", "tensorShape": {"dim": [{"size": "256"}]}}}, "dtype": {"type": "DT_FLOAT"}}}, {"name": "resnet_v1_50/block3/unit_5/bottleneck_v1/conv3/weights", "op": "Const", "attr": {"value": {"tensor": {"dtype": "DT_FLOAT", "tensorShape": {"dim": [{"size": "1"}, {"size": "1"}, {"size": "256"}, {"size": "1024"}]}}}, "dtype": {"type": "DT_FLOAT"}}}, {"name": "resnet_v1_50/block3/unit_5/bottleneck_v1/conv3/Conv2D_bias", "op": "Const", "attr": {"value": {"tensor": {"dtype": "DT_FLOAT", "tensorShape": {"dim": [{"size": "1024"}]}}}, "dtype": {"type": "DT_FLOAT"}}}, {"name": "resnet_v1_50/block3/unit_6/bottleneck_v1/conv1/weights", "op": "Const", "attr": {"value": {"tensor": {"dtype": "DT_FLOAT", "tensorShape": {"dim": [{"size": "1"}, {"size": "1"}, {"size": "1024"}, {"size": "256"}]}}}, "dtype": {"type": "DT_FLOAT"}}}, {"name": "resnet_v1_50/block3/unit_6/bottleneck_v1/conv1/Conv2D_bias", "op": "Const", "attr": {"value": {"tensor": {"dtype": "DT_FLOAT", "tensorShape": {"dim": [{"size": "256"}]}}}, "dtype": {"type": "DT_FLOAT"}}}, {"name": "resnet_v1_50/block3/unit_6/bottleneck_v1/conv2/weights", "op": "Const", "attr": {"value": {"tensor": {"dtype": "DT_FLOAT", "tensorShape": {"dim": [{"size": "3"}, {"size": "3"}, {"size": "256"}, {"size": "256"}]}}}, "dtype": {"type": "DT_FLOAT"}}}, {"name": "resnet_v1_50/block3/unit_6/bottleneck_v1/conv2/Conv2D_bias", "op": "Const", "attr": {"value": {"tensor": {"dtype": "DT_FLOAT", "tensorShape": {"dim": [{"size": "256"}]}}}, "dtype": {"type": "DT_FLOAT"}}}, {"name": "resnet_v1_50/block3/unit_6/bottleneck_v1/conv3/weights", "op": "Const", "attr": {"value": {"tensor": {"dtype": "DT_FLOAT", "tensorShape": {"dim": [{"size": "1"}, {"size": "1"}, {"size": "256"}, {"size": "1024"}]}}}, "dtype": {"type": "DT_FLOAT"}}}, {"name": "resnet_v1_50/block3/unit_6/bottleneck_v1/conv3/Conv2D_bias", "op": "Const", "attr": {"value": {"tensor": {"dtype": "DT_FLOAT", "tensorShape": {"dim": [{"size": "1024"}]}}}, "dtype": {"type": "DT_FLOAT"}}}, {"name": "resnet_v1_50/block4/unit_1/bottleneck_v1/shortcut/weights", "op": "Const", "attr": {"dtype": {"type": "DT_FLOAT"}, "value": {"tensor": {"dtype": "DT_FLOAT", "tensorShape": {"dim": [{"size": "1"}, {"size": "1"}, {"size": "1024"}, {"size": "2048"}]}}}}}, {"name": "resnet_v1_50/block4/unit_1/bottleneck_v1/shortcut/Conv2D_bias", "op": "Const", "attr": {"value": {"tensor": {"dtype": "DT_FLOAT", "tensorShape": {"dim": [{"size": "2048"}]}}}, "dtype": {"type": "DT_FLOAT"}}}, {"name": "resnet_v1_50/block4/unit_1/bottleneck_v1/conv1/weights", "op": "Const", "attr": {"value": {"tensor": {"dtype": "DT_FLOAT", "tensorShape": {"dim": [{"size": "1"}, {"size": "1"}, {"size": "1024"}, {"size": "512"}]}}}, "dtype": {"type": "DT_FLOAT"}}}, {"name": "resnet_v1_50/block4/unit_1/bottleneck_v1/conv1/Conv2D_bias", "op": "Const", "attr": {"value": {"tensor": {"dtype": "DT_FLOAT", "tensorShape": {"dim": [{"size": "512"}]}}}, "dtype": {"type": "DT_FLOAT"}}}, {"name": "resnet_v1_50/block4/unit_1/bottleneck_v1/conv2/weights", "op": "Const", "attr": {"value": {"tensor": {"dtype": "DT_FLOAT", "tensorShape": {"dim": [{"size": "3"}, {"size": "3"}, {"size": "512"}, {"size": "512"}]}}}, "dtype": {"type": "DT_FLOAT"}}}, {"name": "resnet_v1_50/block4/unit_1/bottleneck_v1/conv2/Conv2D_bias", "op": "Const", "attr": {"value": {"tensor": {"dtype": "DT_FLOAT", "tensorShape": {"dim": [{"size": "512"}]}}}, "dtype": {"type": "DT_FLOAT"}}}, {"name": "resnet_v1_50/block4/unit_1/bottleneck_v1/conv3/weights", "op": "Const", "attr": {"value": {"tensor": {"dtype": "DT_FLOAT", "tensorShape": {"dim": [{"size": "1"}, {"size": "1"}, {"size": "512"}, {"size": "2048"}]}}}, "dtype": {"type": "DT_FLOAT"}}}, {"name": "resnet_v1_50/block4/unit_1/bottleneck_v1/conv3/Conv2D_bias", "op": "Const", "attr": {"value": {"tensor": {"dtype": "DT_FLOAT", "tensorShape": {"dim": [{"size": "2048"}]}}}, "dtype": {"type": "DT_FLOAT"}}}, {"name": "resnet_v1_50/block4/unit_2/bottleneck_v1/conv1/weights", "op": "Const", "attr": {"value": {"tensor": {"dtype": "DT_FLOAT", "tensorShape": {"dim": [{"size": "1"}, {"size": "1"}, {"size": "2048"}, {"size": "512"}]}}}, "dtype": {"type": "DT_FLOAT"}}}, {"name": "resnet_v1_50/block4/unit_2/bottleneck_v1/conv1/Conv2D_bias", "op": "Const", "attr": {"value": {"tensor": {"dtype": "DT_FLOAT", "tensorShape": {"dim": [{"size": "512"}]}}}, "dtype": {"type": "DT_FLOAT"}}}, {"name": "resnet_v1_50/block4/unit_2/bottleneck_v1/conv2/weights", "op": "Const", "attr": {"value": {"tensor": {"dtype": "DT_FLOAT", "tensorShape": {"dim": [{"size": "3"}, {"size": "3"}, {"size": "512"}, {"size": "512"}]}}}, "dtype": {"type": "DT_FLOAT"}}}, {"name": "resnet_v1_50/block4/unit_2/bottleneck_v1/conv2/Conv2D_bias", "op": "Const", "attr": {"dtype": {"type": "DT_FLOAT"}, "value": {"tensor": {"dtype": "DT_FLOAT", "tensorShape": {"dim": [{"size": "512"}]}}}}}, {"name": "resnet_v1_50/block4/unit_2/bottleneck_v1/conv3/weights", "op": "Const", "attr": {"value": {"tensor": {"dtype": "DT_FLOAT", "tensorShape": {"dim": [{"size": "1"}, {"size": "1"}, {"size": "512"}, {"size": "2048"}]}}}, "dtype": {"type": "DT_FLOAT"}}}, {"name": "resnet_v1_50/block4/unit_2/bottleneck_v1/conv3/Conv2D_bias", "op": "Const", "attr": {"value": {"tensor": {"dtype": "DT_FLOAT", "tensorShape": {"dim": [{"size": "2048"}]}}}, "dtype": {"type": "DT_FLOAT"}}}, {"name": "resnet_v1_50/block4/unit_3/bottleneck_v1/conv1/weights", "op": "Const", "attr": {"value": {"tensor": {"dtype": "DT_FLOAT", "tensorShape": {"dim": [{"size": "1"}, {"size": "1"}, {"size": "2048"}, {"size": "512"}]}}}, "dtype": {"type": "DT_FLOAT"}}}, {"name": "resnet_v1_50/block4/unit_3/bottleneck_v1/conv1/Conv2D_bias", "op": "Const", "attr": {"value": {"tensor": {"dtype": "DT_FLOAT", "tensorShape": {"dim": [{"size": "512"}]}}}, "dtype": {"type": "DT_FLOAT"}}}, {"name": "resnet_v1_50/block4/unit_3/bottleneck_v1/conv2/weights", "op": "Const", "attr": {"value": {"tensor": {"dtype": "DT_FLOAT", "tensorShape": {"dim": [{"size": "3"}, {"size": "3"}, {"size": "512"}, {"size": "512"}]}}}, "dtype": {"type": "DT_FLOAT"}}}, {"name": "resnet_v1_50/block4/unit_3/bottleneck_v1/conv2/Conv2D_bias", "op": "Const", "attr": {"value": {"tensor": {"dtype": "DT_FLOAT", "tensorShape": {"dim": [{"size": "512"}]}}}, "dtype": {"type": "DT_FLOAT"}}}, {"name": "resnet_v1_50/block4/unit_3/bottleneck_v1/conv3/weights", "op": "Const", "attr": {"value": {"tensor": {"dtype": "DT_FLOAT", "tensorShape": {"dim": [{"size": "1"}, {"size": "1"}, {"size": "512"}, {"size": "2048"}]}}}, "dtype": {"type": "DT_FLOAT"}}}, {"name": "resnet_v1_50/block4/unit_3/bottleneck_v1/conv3/Conv2D_bias", "op": "Const", "attr": {"value": {"tensor": {"dtype": "DT_FLOAT", "tensorShape": {"dim": [{"size": "2048"}]}}}, "dtype": {"type": "DT_FLOAT"}}}, {"name": "resnet_v1_50/displacement_bwd_2/weights", "op": "Const", "attr": {"value": {"tensor": {"dtype": "DT_FLOAT", "tensorShape": {"dim": [{"size": "1"}, {"size": "1"}, {"size": "2048"}, {"size": "32"}]}}}, "dtype": {"type": "DT_FLOAT"}}}, {"name": "resnet_v1_50/displacement_bwd_2/Conv2D_bias", "op": "Const", "attr": {"value": {"tensor": {"dtype": "DT_FLOAT", "tensorShape": {"dim": [{"size": "32"}]}}}, "dtype": {"type": "DT_FLOAT"}}}, {"name": "resnet_v1_50/displacement_fwd_2/weights", "op": "Const", "attr": {"value": {"tensor": {"dtype": "DT_FLOAT", "tensorShape": {"dim": [{"size": "1"}, {"size": "1"}, {"size": "2048"}, {"size": "32"}]}}}, "dtype": {"type": "DT_FLOAT"}}}, {"name": "resnet_v1_50/displacement_fwd_2/Conv2D_bias", "op": "Const", "attr": {"value": {"tensor": {"dtype": "DT_FLOAT", "tensorShape": {"dim": [{"size": "32"}]}}}, "dtype": {"type": "DT_FLOAT"}}}, {"name": "resnet_v1_50/heatmap_2/weights", "op": "Const", "attr": {"dtype": {"type": "DT_FLOAT"}, "value": {"tensor": {"dtype": "DT_FLOAT", "tensorShape": {"dim": [{"size": "1"}, {"size": "1"}, {"size": "2048"}, {"size": "17"}]}}}}}, {"name": "resnet_v1_50/heatmap_2/Conv2D_bias", "op": "Const", "attr": {"value": {"tensor": {"dtype": "DT_FLOAT", "tensorShape": {"dim": [{"size": "17"}]}}}, "dtype": {"type": "DT_FLOAT"}}}, {"name": "resnet_v1_50/embedding_2/weights", "op": "Const", "attr": {"value": {"tensor": {"dtype": "DT_FLOAT", "tensorShape": {"dim": [{"size": "1"}, {"size": "1"}, {"size": "2048"}, {"size": "34"}]}}}, "dtype": {"type": "DT_FLOAT"}}}, {"name": "resnet_v1_50/embedding_2/Conv2D_bias", "op": "Const", "attr": {"value": {"tensor": {"dtype": "DT_FLOAT", "tensorShape": {"dim": [{"size": "34"}]}}}, "dtype": {"type": "DT_FLOAT"}}}, {"name": "resnet_v1_50/offset_2/weights", "op": "Const", "attr": {"value": {"tensor": {"dtype": "DT_FLOAT", "tensorShape": {"dim": [{"size": "1"}, {"size": "1"}, {"size": "2048"}, {"size": "34"}]}}}, "dtype": {"type": "DT_FLOAT"}}}, {"name": "resnet_v1_50/offset_2/Conv2D_bias", "op": "Const", "attr": {"value": {"tensor": {"dtype": "DT_FLOAT", "tensorShape": {"dim": [{"size": "34"}]}}}, "dtype": {"type": "DT_FLOAT"}}}, {"name": "resnet_v1_50/part_heatmap_2/weights", "op": "Const", "attr": {"value": {"tensor": {"dtype": "DT_FLOAT", "tensorShape": {"dim": [{"size": "1"}, {"size": "1"}, {"size": "2048"}, {"size": "24"}]}}}, "dtype": {"type": "DT_FLOAT"}}}, {"name": "resnet_v1_50/part_heatmap_2/Conv2D_bias", "op": "Const", "attr": {"value": {"tensor": {"dtype": "DT_FLOAT", "tensorShape": {"dim": [{"size": "24"}]}}}, "dtype": {"type": "DT_FLOAT"}}}, {"name": "resnet_v1_50/part_offset_2/weights", "op": "Const", "attr": {"value": {"tensor": {"dtype": "DT_FLOAT", "tensorShape": {"dim": [{"size": "1"}, {"size": "1"}, {"size": "2048"}, {"size": "48"}]}}}, "dtype": {"type": "DT_FLOAT"}}}, {"name": "resnet_v1_50/part_offset_2/Conv2D_bias", "op": "Const", "attr": {"value": {"tensor": {"dtype": "DT_FLOAT", "tensorShape": {"dim": [{"size": "48"}]}}}, "dtype": {"type": "DT_FLOAT"}}}, {"name": "clip_by_value/Minimum/y", "op": "Const", "attr": {"value": {"tensor": {"dtype": "DT_FLOAT", "tensorShape": {}}}, "dtype": {"type": "DT_FLOAT"}}}, {"name": "clip_by_value/y", "op": "Const", "attr": {"value": {"tensor": {"dtype": "DT_FLOAT", "tensorShape": {}}}, "dtype": {"type": "DT_FLOAT"}}}, {"name": "resnet_v1_50/segment_2/weights", "op": "Const", "attr": {"value": {"tensor": {"dtype": "DT_FLOAT", "tensorShape": {"dim": [{"size": "1"}, {"size": "1"}, {"size": "2048"}, {"size": "1"}]}}}, "dtype": {"type": "DT_FLOAT"}}}, {"name": "resnet_v1_50/segment_2/Conv2D_bias", "op": "Const", "attr": {"value": {"tensor": {"dtype": "DT_FLOAT", "tensorShape": {"dim": [{"size": "1"}]}}}, "dtype": {"type": "DT_FLOAT"}}}, {"name": "resnet_v1_50/Pad", "op": "Pad", "input": ["sub_2", "resnet_v1_50/Pad/paddings"], "attr": {"T": {"type": "DT_FLOAT"}, "Tpaddings": {"type": "DT_INT32"}}}, {"name": "resnet_v1_50/conv1/BatchNorm/batchnorm_1/add_1/conv", "op": "Conv2D", "input": ["resnet_v1_50/Pad", "resnet_v1_50/conv1/weights"], "attr": {"padding": {"s": "VkFMSUQ="}, "dilations": {"list": {"i": ["1", "1", "1", "1"]}}, "T": {"type": "DT_FLOAT"}, "strides": {"list": {"i": ["1", "2", "2", "1"]}}, "data_format": {"s": "TkhXQw=="}, "explicit_paddings": {"list": {}}, "use_cudnn_on_gpu": {"b": true}}}, {"name": "resnet_v1_50/conv1/BatchNorm/batchnorm_1/add_1", "op": "BiasAdd", "input": ["resnet_v1_50/conv1/BatchNorm/batchnorm_1/add_1/conv", "resnet_v1_50/conv1/Conv2D_bias"], "attr": {"T": {"type": "DT_FLOAT"}, "data_format": {"s": "TkhXQw=="}}}, {"name": "resnet_v1_50/conv1/Relu", "op": "Relu", "input": ["resnet_v1_50/conv1/BatchNorm/batchnorm_1/add_1"], "attr": {"T": {"type": "DT_FLOAT"}}}, {"name": "resnet_v1_50/Pad_1", "op": "Pad", "input": ["resnet_v1_50/conv1/Relu", "resnet_v1_50/Pad_1/paddings"], "attr": {"Tpaddings": {"type": "DT_INT32"}, "T": {"type": "DT_FLOAT"}}}, {"name": "resnet_v1_50/pool1/MaxPool", "op": "MaxPool", "input": ["resnet_v1_50/Pad_1"], "attr": {"ksize": {"list": {"i": ["1", "3", "3", "1"]}}, "padding": {"s": "VkFMSUQ="}, "T": {"type": "DT_FLOAT"}, "strides": {"list": {"i": ["1", "2", "2", "1"]}}, "data_format": {"s": "TkhXQw=="}}}, {"name": "resnet_v1_50/block1/unit_1/bottleneck_v1/shortcut/BatchNorm/batchnorm_1/add_1/conv", "op": "Conv2D", "input": ["resnet_v1_50/pool1/MaxPool", "resnet_v1_50/block1/unit_1/bottleneck_v1/shortcut/weights"], "attr": {"padding": {"s": "U0FNRQ=="}, "dilations": {"list": {"i": ["1", "1", "1", "1"]}}, "T": {"type": "DT_FLOAT"}, "strides": {"list": {"i": ["1", "1", "1", "1"]}}, "data_format": {"s": "TkhXQw=="}, "use_cudnn_on_gpu": {"b": true}, "explicit_paddings": {"list": {}}}}, {"name": "resnet_v1_50/block1/unit_1/bottleneck_v1/conv1/BatchNorm/batchnorm_1/add_1/conv", "op": "Conv2D", "input": ["resnet_v1_50/pool1/MaxPool", "resnet_v1_50/block1/unit_1/bottleneck_v1/conv1/weights"], "attr": {"dilations": {"list": {"i": ["1", "1", "1", "1"]}}, "T": {"type": "DT_FLOAT"}, "strides": {"list": {"i": ["1", "1", "1", "1"]}}, "data_format": {"s": "TkhXQw=="}, "explicit_paddings": {"list": {}}, "use_cudnn_on_gpu": {"b": true}, "padding": {"s": "U0FNRQ=="}}}, {"name": "resnet_v1_50/block1/unit_1/bottleneck_v1/shortcut/BatchNorm/batchnorm_1/add_1", "op": "BiasAdd", "input": ["resnet_v1_50/block1/unit_1/bottleneck_v1/shortcut/BatchNorm/batchnorm_1/add_1/conv", "resnet_v1_50/block1/unit_1/bottleneck_v1/shortcut/Conv2D_bias"], "attr": {"T": {"type": "DT_FLOAT"}, "data_format": {"s": "TkhXQw=="}}}, {"name": "resnet_v1_50/block1/unit_1/bottleneck_v1/conv1/BatchNorm/batchnorm_1/add_1", "op": "BiasAdd", "input": ["resnet_v1_50/block1/unit_1/bottleneck_v1/conv1/BatchNorm/batchnorm_1/add_1/conv", "resnet_v1_50/block1/unit_1/bottleneck_v1/conv1/Conv2D_bias"], "attr": {"data_format": {"s": "TkhXQw=="}, "T": {"type": "DT_FLOAT"}}}, {"name": "resnet_v1_50/block1/unit_1/bottleneck_v1/conv1/Relu", "op": "Relu", "input": ["resnet_v1_50/block1/unit_1/bottleneck_v1/conv1/BatchNorm/batchnorm_1/add_1"], "attr": {"T": {"type": "DT_FLOAT"}}}, {"name": "resnet_v1_50/block1/unit_1/bottleneck_v1/conv2/BatchNorm/batchnorm_1/add_1/conv", "op": "Conv2D", "input": ["resnet_v1_50/block1/unit_1/bottleneck_v1/conv1/Relu", "resnet_v1_50/block1/unit_1/bottleneck_v1/conv2/weights"], "attr": {"padding": {"s": "U0FNRQ=="}, "dilations": {"list": {"i": ["1", "1", "1", "1"]}}, "T": {"type": "DT_FLOAT"}, "data_format": {"s": "TkhXQw=="}, "strides": {"list": {"i": ["1", "1", "1", "1"]}}, "use_cudnn_on_gpu": {"b": true}, "explicit_paddings": {"list": {}}}}, {"name": "resnet_v1_50/block1/unit_1/bottleneck_v1/conv2/BatchNorm/batchnorm_1/add_1", "op": "BiasAdd", "input": ["resnet_v1_50/block1/unit_1/bottleneck_v1/conv2/BatchNorm/batchnorm_1/add_1/conv", "resnet_v1_50/block1/unit_1/bottleneck_v1/conv2/Conv2D_bias"], "attr": {"T": {"type": "DT_FLOAT"}, "data_format": {"s": "TkhXQw=="}}}, {"name": "resnet_v1_50/block1/unit_1/bottleneck_v1/conv2/Relu", "op": "Relu", "input": ["resnet_v1_50/block1/unit_1/bottleneck_v1/conv2/BatchNorm/batchnorm_1/add_1"], "attr": {"T": {"type": "DT_FLOAT"}}}, {"name": "resnet_v1_50/block1/unit_1/bottleneck_v1/conv3/BatchNorm/batchnorm_1/add_1/conv", "op": "Conv2D", "input": ["resnet_v1_50/block1/unit_1/bottleneck_v1/conv2/Relu", "resnet_v1_50/block1/unit_1/bottleneck_v1/conv3/weights"], "attr": {"strides": {"list": {"i": ["1", "1", "1", "1"]}}, "data_format": {"s": "TkhXQw=="}, "use_cudnn_on_gpu": {"b": true}, "explicit_paddings": {"list": {}}, "padding": {"s": "U0FNRQ=="}, "dilations": {"list": {"i": ["1", "1", "1", "1"]}}, "T": {"type": "DT_FLOAT"}}}, {"name": "resnet_v1_50/block1/unit_1/bottleneck_v1/conv3/BatchNorm/batchnorm_1/add_1", "op": "BiasAdd", "input": ["resnet_v1_50/block1/unit_1/bottleneck_v1/conv3/BatchNorm/batchnorm_1/add_1/conv", "resnet_v1_50/block1/unit_1/bottleneck_v1/conv3/Conv2D_bias"], "attr": {"data_format": {"s": "TkhXQw=="}, "T": {"type": "DT_FLOAT"}}}, {"name": "resnet_v1_50/block1/unit_1/bottleneck_v1/add", "op": "Add", "input": ["resnet_v1_50/block1/unit_1/bottleneck_v1/conv3/BatchNorm/batchnorm_1/add_1", "resnet_v1_50/block1/unit_1/bottleneck_v1/shortcut/BatchNorm/batchnorm_1/add_1"], "attr": {"T": {"type": "DT_FLOAT"}}}, {"name": "resnet_v1_50/block1/unit_1/bottleneck_v1/Relu", "op": "Relu", "input": ["resnet_v1_50/block1/unit_1/bottleneck_v1/add"], "attr": {"T": {"type": "DT_FLOAT"}}}, {"name": "resnet_v1_50/block1/unit_2/bottleneck_v1/conv1/BatchNorm/batchnorm_1/add_1/conv", "op": "Conv2D", "input": ["resnet_v1_50/block1/unit_1/bottleneck_v1/Relu", "resnet_v1_50/block1/unit_2/bottleneck_v1/conv1/weights"], "attr": {"padding": {"s": "U0FNRQ=="}, "dilations": {"list": {"i": ["1", "1", "1", "1"]}}, "T": {"type": "DT_FLOAT"}, "strides": {"list": {"i": ["1", "1", "1", "1"]}}, "data_format": {"s": "TkhXQw=="}, "use_cudnn_on_gpu": {"b": true}, "explicit_paddings": {"list": {}}}}, {"name": "resnet_v1_50/block1/unit_2/bottleneck_v1/conv1/BatchNorm/batchnorm_1/add_1", "op": "BiasAdd", "input": ["resnet_v1_50/block1/unit_2/bottleneck_v1/conv1/BatchNorm/batchnorm_1/add_1/conv", "resnet_v1_50/block1/unit_2/bottleneck_v1/conv1/Conv2D_bias"], "attr": {"T": {"type": "DT_FLOAT"}, "data_format": {"s": "TkhXQw=="}}}, {"name": "resnet_v1_50/block1/unit_2/bottleneck_v1/conv1/Relu", "op": "Relu", "input": ["resnet_v1_50/block1/unit_2/bottleneck_v1/conv1/BatchNorm/batchnorm_1/add_1"], "attr": {"T": {"type": "DT_FLOAT"}}}, {"name": "resnet_v1_50/block1/unit_2/bottleneck_v1/conv2/BatchNorm/batchnorm_1/add_1/conv", "op": "Conv2D", "input": ["resnet_v1_50/block1/unit_2/bottleneck_v1/conv1/Relu", "resnet_v1_50/block1/unit_2/bottleneck_v1/conv2/weights"], "attr": {"dilations": {"list": {"i": ["1", "1", "1", "1"]}}, "T": {"type": "DT_FLOAT"}, "strides": {"list": {"i": ["1", "1", "1", "1"]}}, "data_format": {"s": "TkhXQw=="}, "use_cudnn_on_gpu": {"b": true}, "explicit_paddings": {"list": {}}, "padding": {"s": "U0FNRQ=="}}}, {"name": "resnet_v1_50/block1/unit_2/bottleneck_v1/conv2/BatchNorm/batchnorm_1/add_1", "op": "BiasAdd", "input": ["resnet_v1_50/block1/unit_2/bottleneck_v1/conv2/BatchNorm/batchnorm_1/add_1/conv", "resnet_v1_50/block1/unit_2/bottleneck_v1/conv2/Conv2D_bias"], "attr": {"T": {"type": "DT_FLOAT"}, "data_format": {"s": "TkhXQw=="}}}, {"name": "resnet_v1_50/block1/unit_2/bottleneck_v1/conv2/Relu", "op": "Relu", "input": ["resnet_v1_50/block1/unit_2/bottleneck_v1/conv2/BatchNorm/batchnorm_1/add_1"], "attr": {"T": {"type": "DT_FLOAT"}}}, {"name": "resnet_v1_50/block1/unit_2/bottleneck_v1/conv3/BatchNorm/batchnorm_1/add_1/conv", "op": "Conv2D", "input": ["resnet_v1_50/block1/unit_2/bottleneck_v1/conv2/Relu", "resnet_v1_50/block1/unit_2/bottleneck_v1/conv3/weights"], "attr": {"padding": {"s": "U0FNRQ=="}, "dilations": {"list": {"i": ["1", "1", "1", "1"]}}, "T": {"type": "DT_FLOAT"}, "data_format": {"s": "TkhXQw=="}, "strides": {"list": {"i": ["1", "1", "1", "1"]}}, "explicit_paddings": {"list": {}}, "use_cudnn_on_gpu": {"b": true}}}, {"name": "resnet_v1_50/block1/unit_2/bottleneck_v1/conv3/BatchNorm/batchnorm_1/add_1", "op": "BiasAdd", "input": ["resnet_v1_50/block1/unit_2/bottleneck_v1/conv3/BatchNorm/batchnorm_1/add_1/conv", "resnet_v1_50/block1/unit_2/bottleneck_v1/conv3/Conv2D_bias"], "attr": {"T": {"type": "DT_FLOAT"}, "data_format": {"s": "TkhXQw=="}}}, {"name": "resnet_v1_50/block1/unit_2/bottleneck_v1/add", "op": "Add", "input": ["resnet_v1_50/block1/unit_1/bottleneck_v1/Relu", "resnet_v1_50/block1/unit_2/bottleneck_v1/conv3/BatchNorm/batchnorm_1/add_1"], "attr": {"T": {"type": "DT_FLOAT"}}}, {"name": "resnet_v1_50/block1/unit_2/bottleneck_v1/Relu", "op": "Relu", "input": ["resnet_v1_50/block1/unit_2/bottleneck_v1/add"], "attr": {"T": {"type": "DT_FLOAT"}}}, {"name": "resnet_v1_50/block1/unit_3/bottleneck_v1/shortcut/MaxPool", "op": "MaxPool", "input": ["resnet_v1_50/block1/unit_2/bottleneck_v1/Relu"], "attr": {"ksize": {"list": {"i": ["1", "1", "1", "1"]}}, "padding": {"s": "U0FNRQ=="}, "T": {"type": "DT_FLOAT"}, "strides": {"list": {"i": ["1", "2", "2", "1"]}}, "data_format": {"s": "TkhXQw=="}}}, {"name": "resnet_v1_50/block1/unit_3/bottleneck_v1/conv1/BatchNorm/batchnorm_1/add_1/conv", "op": "Conv2D", "input": ["resnet_v1_50/block1/unit_2/bottleneck_v1/Relu", "resnet_v1_50/block1/unit_3/bottleneck_v1/conv1/weights"], "attr": {"dilations": {"list": {"i": ["1", "1", "1", "1"]}}, "T": {"type": "DT_FLOAT"}, "strides": {"list": {"i": ["1", "1", "1", "1"]}}, "data_format": {"s": "TkhXQw=="}, "use_cudnn_on_gpu": {"b": true}, "explicit_paddings": {"list": {}}, "padding": {"s": "U0FNRQ=="}}}, {"name": "resnet_v1_50/block1/unit_3/bottleneck_v1/conv1/BatchNorm/batchnorm_1/add_1", "op": "BiasAdd", "input": ["resnet_v1_50/block1/unit_3/bottleneck_v1/conv1/BatchNorm/batchnorm_1/add_1/conv", "resnet_v1_50/block1/unit_3/bottleneck_v1/conv1/Conv2D_bias"], "attr": {"T": {"type": "DT_FLOAT"}, "data_format": {"s": "TkhXQw=="}}}, {"name": "resnet_v1_50/block1/unit_3/bottleneck_v1/conv1/Relu", "op": "Relu", "input": ["resnet_v1_50/block1/unit_3/bottleneck_v1/conv1/BatchNorm/batchnorm_1/add_1"], "attr": {"T": {"type": "DT_FLOAT"}}}, {"name": "resnet_v1_50/block1/unit_3/bottleneck_v1/Pad", "op": "Pad", "input": ["resnet_v1_50/block1/unit_3/bottleneck_v1/conv1/Relu", "resnet_v1_50/Pad_1/paddings"], "attr": {"T": {"type": "DT_FLOAT"}, "Tpaddings": {"type": "DT_INT32"}}}, {"name": "resnet_v1_50/block1/unit_3/bottleneck_v1/conv2/BatchNorm/batchnorm_1/add_1/conv", "op": "Conv2D", "input": ["resnet_v1_50/block1/unit_3/bottleneck_v1/Pad", "resnet_v1_50/block1/unit_3/bottleneck_v1/conv2/weights"], "attr": {"dilations": {"list": {"i": ["1", "1", "1", "1"]}}, "T": {"type": "DT_FLOAT"}, "data_format": {"s": "TkhXQw=="}, "strides": {"list": {"i": ["1", "2", "2", "1"]}}, "explicit_paddings": {"list": {}}, "use_cudnn_on_gpu": {"b": true}, "padding": {"s": "VkFMSUQ="}}}, {"name": "resnet_v1_50/block1/unit_3/bottleneck_v1/conv2/BatchNorm/batchnorm_1/add_1", "op": "BiasAdd", "input": ["resnet_v1_50/block1/unit_3/bottleneck_v1/conv2/BatchNorm/batchnorm_1/add_1/conv", "resnet_v1_50/block1/unit_3/bottleneck_v1/conv2/Conv2D_bias"], "attr": {"T": {"type": "DT_FLOAT"}, "data_format": {"s": "TkhXQw=="}}}, {"name": "resnet_v1_50/block1/unit_3/bottleneck_v1/conv2/Relu", "op": "Relu", "input": ["resnet_v1_50/block1/unit_3/bottleneck_v1/conv2/BatchNorm/batchnorm_1/add_1"], "attr": {"T": {"type": "DT_FLOAT"}}}, {"name": "resnet_v1_50/block1/unit_3/bottleneck_v1/conv3/BatchNorm/batchnorm_1/add_1/conv", "op": "Conv2D", "input": ["resnet_v1_50/block1/unit_3/bottleneck_v1/conv2/Relu", "resnet_v1_50/block1/unit_3/bottleneck_v1/conv3/weights"], "attr": {"explicit_paddings": {"list": {}}, "use_cudnn_on_gpu": {"b": true}, "padding": {"s": "U0FNRQ=="}, "dilations": {"list": {"i": ["1", "1", "1", "1"]}}, "T": {"type": "DT_FLOAT"}, "strides": {"list": {"i": ["1", "1", "1", "1"]}}, "data_format": {"s": "TkhXQw=="}}}, {"name": "resnet_v1_50/block1/unit_3/bottleneck_v1/conv3/BatchNorm/batchnorm_1/add_1", "op": "BiasAdd", "input": ["resnet_v1_50/block1/unit_3/bottleneck_v1/conv3/BatchNorm/batchnorm_1/add_1/conv", "resnet_v1_50/block1/unit_3/bottleneck_v1/conv3/Conv2D_bias"], "attr": {"T": {"type": "DT_FLOAT"}, "data_format": {"s": "TkhXQw=="}}}, {"name": "resnet_v1_50/block1/unit_3/bottleneck_v1/add", "op": "Add", "input": ["resnet_v1_50/block1/unit_3/bottleneck_v1/conv3/BatchNorm/batchnorm_1/add_1", "resnet_v1_50/block1/unit_3/bottleneck_v1/shortcut/MaxPool"], "attr": {"T": {"type": "DT_FLOAT"}}}, {"name": "resnet_v1_50/block1/unit_3/bottleneck_v1/Relu", "op": "Relu", "input": ["resnet_v1_50/block1/unit_3/bottleneck_v1/add"], "attr": {"T": {"type": "DT_FLOAT"}}}, {"name": "resnet_v1_50/block2/unit_1/bottleneck_v1/shortcut/BatchNorm/batchnorm_1/add_1/conv", "op": "Conv2D", "input": ["resnet_v1_50/block1/unit_3/bottleneck_v1/Relu", "resnet_v1_50/block2/unit_1/bottleneck_v1/shortcut/weights"], "attr": {"dilations": {"list": {"i": ["1", "1", "1", "1"]}}, "T": {"type": "DT_FLOAT"}, "strides": {"list": {"i": ["1", "1", "1", "1"]}}, "data_format": {"s": "TkhXQw=="}, "use_cudnn_on_gpu": {"b": true}, "explicit_paddings": {"list": {}}, "padding": {"s": "U0FNRQ=="}}}, {"name": "resnet_v1_50/block2/unit_1/bottleneck_v1/conv1/BatchNorm/batchnorm_1/add_1/conv", "op": "Conv2D", "input": ["resnet_v1_50/block1/unit_3/bottleneck_v1/Relu", "resnet_v1_50/block2/unit_1/bottleneck_v1/conv1/weights"], "attr": {"data_format": {"s": "TkhXQw=="}, "strides": {"list": {"i": ["1", "1", "1", "1"]}}, "use_cudnn_on_gpu": {"b": true}, "explicit_paddings": {"list": {}}, "padding": {"s": "U0FNRQ=="}, "dilations": {"list": {"i": ["1", "1", "1", "1"]}}, "T": {"type": "DT_FLOAT"}}}, {"name": "resnet_v1_50/block2/unit_1/bottleneck_v1/shortcut/BatchNorm/batchnorm_1/add_1", "op": "BiasAdd", "input": ["resnet_v1_50/block2/unit_1/bottleneck_v1/shortcut/BatchNorm/batchnorm_1/add_1/conv", "resnet_v1_50/block2/unit_1/bottleneck_v1/shortcut/Conv2D_bias"], "attr": {"data_format": {"s": "TkhXQw=="}, "T": {"type": "DT_FLOAT"}}}, {"name": "resnet_v1_50/block2/unit_1/bottleneck_v1/conv1/BatchNorm/batchnorm_1/add_1", "op": "BiasAdd", "input": ["resnet_v1_50/block2/unit_1/bottleneck_v1/conv1/BatchNorm/batchnorm_1/add_1/conv", "resnet_v1_50/block2/unit_1/bottleneck_v1/conv1/Conv2D_bias"], "attr": {"T": {"type": "DT_FLOAT"}, "data_format": {"s": "TkhXQw=="}}}, {"name": "resnet_v1_50/block2/unit_1/bottleneck_v1/conv1/Relu", "op": "Relu", "input": ["resnet_v1_50/block2/unit_1/bottleneck_v1/conv1/BatchNorm/batchnorm_1/add_1"], "attr": {"T": {"type": "DT_FLOAT"}}}, {"name": "resnet_v1_50/block2/unit_1/bottleneck_v1/conv2/BatchNorm/batchnorm_1/add_1/conv", "op": "Conv2D", "input": ["resnet_v1_50/block2/unit_1/bottleneck_v1/conv1/Relu", "resnet_v1_50/block2/unit_1/bottleneck_v1/conv2/weights"], "attr": {"padding": {"s": "U0FNRQ=="}, "dilations": {"list": {"i": ["1", "1", "1", "1"]}}, "T": {"type": "DT_FLOAT"}, "data_format": {"s": "TkhXQw=="}, "strides": {"list": {"i": ["1", "1", "1", "1"]}}, "explicit_paddings": {"list": {}}, "use_cudnn_on_gpu": {"b": true}}}, {"name": "resnet_v1_50/block2/unit_1/bottleneck_v1/conv2/BatchNorm/batchnorm_1/add_1", "op": "BiasAdd", "input": ["resnet_v1_50/block2/unit_1/bottleneck_v1/conv2/BatchNorm/batchnorm_1/add_1/conv", "resnet_v1_50/block2/unit_1/bottleneck_v1/conv2/Conv2D_bias"], "attr": {"T": {"type": "DT_FLOAT"}, "data_format": {"s": "TkhXQw=="}}}, {"name": "resnet_v1_50/block2/unit_1/bottleneck_v1/conv2/Relu", "op": "Relu", "input": ["resnet_v1_50/block2/unit_1/bottleneck_v1/conv2/BatchNorm/batchnorm_1/add_1"], "attr": {"T": {"type": "DT_FLOAT"}}}, {"name": "resnet_v1_50/block2/unit_1/bottleneck_v1/conv3/BatchNorm/batchnorm_1/add_1/conv", "op": "Conv2D", "input": ["resnet_v1_50/block2/unit_1/bottleneck_v1/conv2/Relu", "resnet_v1_50/block2/unit_1/bottleneck_v1/conv3/weights"], "attr": {"dilations": {"list": {"i": ["1", "1", "1", "1"]}}, "T": {"type": "DT_FLOAT"}, "data_format": {"s": "TkhXQw=="}, "strides": {"list": {"i": ["1", "1", "1", "1"]}}, "explicit_paddings": {"list": {}}, "use_cudnn_on_gpu": {"b": true}, "padding": {"s": "U0FNRQ=="}}}, {"name": "resnet_v1_50/block2/unit_1/bottleneck_v1/conv3/BatchNorm/batchnorm_1/add_1", "op": "BiasAdd", "input": ["resnet_v1_50/block2/unit_1/bottleneck_v1/conv3/BatchNorm/batchnorm_1/add_1/conv", "resnet_v1_50/block2/unit_1/bottleneck_v1/conv3/Conv2D_bias"], "attr": {"data_format": {"s": "TkhXQw=="}, "T": {"type": "DT_FLOAT"}}}, {"name": "resnet_v1_50/block2/unit_1/bottleneck_v1/add", "op": "Add", "input": ["resnet_v1_50/block2/unit_1/bottleneck_v1/conv3/BatchNorm/batchnorm_1/add_1", "resnet_v1_50/block2/unit_1/bottleneck_v1/shortcut/BatchNorm/batchnorm_1/add_1"], "attr": {"T": {"type": "DT_FLOAT"}}}, {"name": "resnet_v1_50/block2/unit_1/bottleneck_v1/Relu", "op": "Relu", "input": ["resnet_v1_50/block2/unit_1/bottleneck_v1/add"], "attr": {"T": {"type": "DT_FLOAT"}}}, {"name": "resnet_v1_50/block2/unit_2/bottleneck_v1/conv1/BatchNorm/batchnorm_1/add_1/conv", "op": "Conv2D", "input": ["resnet_v1_50/block2/unit_1/bottleneck_v1/Relu", "resnet_v1_50/block2/unit_2/bottleneck_v1/conv1/weights"], "attr": {"dilations": {"list": {"i": ["1", "1", "1", "1"]}}, "T": {"type": "DT_FLOAT"}, "strides": {"list": {"i": ["1", "1", "1", "1"]}}, "data_format": {"s": "TkhXQw=="}, "explicit_paddings": {"list": {}}, "use_cudnn_on_gpu": {"b": true}, "padding": {"s": "U0FNRQ=="}}}, {"name": "resnet_v1_50/block2/unit_2/bottleneck_v1/conv1/BatchNorm/batchnorm_1/add_1", "op": "BiasAdd", "input": ["resnet_v1_50/block2/unit_2/bottleneck_v1/conv1/BatchNorm/batchnorm_1/add_1/conv", "resnet_v1_50/block2/unit_2/bottleneck_v1/conv1/Conv2D_bias"], "attr": {"T": {"type": "DT_FLOAT"}, "data_format": {"s": "TkhXQw=="}}}, {"name": "resnet_v1_50/block2/unit_2/bottleneck_v1/conv1/Relu", "op": "Relu", "input": ["resnet_v1_50/block2/unit_2/bottleneck_v1/conv1/BatchNorm/batchnorm_1/add_1"], "attr": {"T": {"type": "DT_FLOAT"}}}, {"name": "resnet_v1_50/block2/unit_2/bottleneck_v1/conv2/BatchNorm/batchnorm_1/add_1/conv", "op": "Conv2D", "input": ["resnet_v1_50/block2/unit_2/bottleneck_v1/conv1/Relu", "resnet_v1_50/block2/unit_2/bottleneck_v1/conv2/weights"], "attr": {"explicit_paddings": {"list": {}}, "use_cudnn_on_gpu": {"b": true}, "padding": {"s": "U0FNRQ=="}, "dilations": {"list": {"i": ["1", "1", "1", "1"]}}, "T": {"type": "DT_FLOAT"}, "data_format": {"s": "TkhXQw=="}, "strides": {"list": {"i": ["1", "1", "1", "1"]}}}}, {"name": "resnet_v1_50/block2/unit_2/bottleneck_v1/conv2/BatchNorm/batchnorm_1/add_1", "op": "BiasAdd", "input": ["resnet_v1_50/block2/unit_2/bottleneck_v1/conv2/BatchNorm/batchnorm_1/add_1/conv", "resnet_v1_50/block2/unit_2/bottleneck_v1/conv2/Conv2D_bias"], "attr": {"T": {"type": "DT_FLOAT"}, "data_format": {"s": "TkhXQw=="}}}, {"name": "resnet_v1_50/block2/unit_2/bottleneck_v1/conv2/Relu", "op": "Relu", "input": ["resnet_v1_50/block2/unit_2/bottleneck_v1/conv2/BatchNorm/batchnorm_1/add_1"], "attr": {"T": {"type": "DT_FLOAT"}}}, {"name": "resnet_v1_50/block2/unit_2/bottleneck_v1/conv3/BatchNorm/batchnorm_1/add_1/conv", "op": "Conv2D", "input": ["resnet_v1_50/block2/unit_2/bottleneck_v1/conv2/Relu", "resnet_v1_50/block2/unit_2/bottleneck_v1/conv3/weights"], "attr": {"dilations": {"list": {"i": ["1", "1", "1", "1"]}}, "T": {"type": "DT_FLOAT"}, "strides": {"list": {"i": ["1", "1", "1", "1"]}}, "data_format": {"s": "TkhXQw=="}, "use_cudnn_on_gpu": {"b": true}, "explicit_paddings": {"list": {}}, "padding": {"s": "U0FNRQ=="}}}, {"name": "resnet_v1_50/block2/unit_2/bottleneck_v1/conv3/BatchNorm/batchnorm_1/add_1", "op": "BiasAdd", "input": ["resnet_v1_50/block2/unit_2/bottleneck_v1/conv3/BatchNorm/batchnorm_1/add_1/conv", "resnet_v1_50/block2/unit_2/bottleneck_v1/conv3/Conv2D_bias"], "attr": {"T": {"type": "DT_FLOAT"}, "data_format": {"s": "TkhXQw=="}}}, {"name": "resnet_v1_50/block2/unit_2/bottleneck_v1/add", "op": "Add", "input": ["resnet_v1_50/block2/unit_1/bottleneck_v1/Relu", "resnet_v1_50/block2/unit_2/bottleneck_v1/conv3/BatchNorm/batchnorm_1/add_1"], "attr": {"T": {"type": "DT_FLOAT"}}}, {"name": "resnet_v1_50/block2/unit_2/bottleneck_v1/Relu", "op": "Relu", "input": ["resnet_v1_50/block2/unit_2/bottleneck_v1/add"], "attr": {"T": {"type": "DT_FLOAT"}}}, {"name": "resnet_v1_50/block2/unit_3/bottleneck_v1/conv1/BatchNorm/batchnorm_1/add_1/conv", "op": "Conv2D", "input": ["resnet_v1_50/block2/unit_2/bottleneck_v1/Relu", "resnet_v1_50/block2/unit_3/bottleneck_v1/conv1/weights"], "attr": {"dilations": {"list": {"i": ["1", "1", "1", "1"]}}, "T": {"type": "DT_FLOAT"}, "data_format": {"s": "TkhXQw=="}, "strides": {"list": {"i": ["1", "1", "1", "1"]}}, "explicit_paddings": {"list": {}}, "use_cudnn_on_gpu": {"b": true}, "padding": {"s": "U0FNRQ=="}}}, {"name": "resnet_v1_50/block2/unit_3/bottleneck_v1/conv1/BatchNorm/batchnorm_1/add_1", "op": "BiasAdd", "input": ["resnet_v1_50/block2/unit_3/bottleneck_v1/conv1/BatchNorm/batchnorm_1/add_1/conv", "resnet_v1_50/block2/unit_3/bottleneck_v1/conv1/Conv2D_bias"], "attr": {"T": {"type": "DT_FLOAT"}, "data_format": {"s": "TkhXQw=="}}}, {"name": "resnet_v1_50/block2/unit_3/bottleneck_v1/conv1/Relu", "op": "Relu", "input": ["resnet_v1_50/block2/unit_3/bottleneck_v1/conv1/BatchNorm/batchnorm_1/add_1"], "attr": {"T": {"type": "DT_FLOAT"}}}, {"name": "resnet_v1_50/block2/unit_3/bottleneck_v1/conv2/BatchNorm/batchnorm_1/add_1/conv", "op": "Conv2D", "input": ["resnet_v1_50/block2/unit_3/bottleneck_v1/conv1/Relu", "resnet_v1_50/block2/unit_3/bottleneck_v1/conv2/weights"], "attr": {"strides": {"list": {"i": ["1", "1", "1", "1"]}}, "data_format": {"s": "TkhXQw=="}, "explicit_paddings": {"list": {}}, "use_cudnn_on_gpu": {"b": true}, "padding": {"s": "U0FNRQ=="}, "dilations": {"list": {"i": ["1", "1", "1", "1"]}}, "T": {"type": "DT_FLOAT"}}}, {"name": "resnet_v1_50/block2/unit_3/bottleneck_v1/conv2/BatchNorm/batchnorm_1/add_1", "op": "BiasAdd", "input": ["resnet_v1_50/block2/unit_3/bottleneck_v1/conv2/BatchNorm/batchnorm_1/add_1/conv", "resnet_v1_50/block2/unit_3/bottleneck_v1/conv2/Conv2D_bias"], "attr": {"data_format": {"s": "TkhXQw=="}, "T": {"type": "DT_FLOAT"}}}, {"name": "resnet_v1_50/block2/unit_3/bottleneck_v1/conv2/Relu", "op": "Relu", "input": ["resnet_v1_50/block2/unit_3/bottleneck_v1/conv2/BatchNorm/batchnorm_1/add_1"], "attr": {"T": {"type": "DT_FLOAT"}}}, {"name": "resnet_v1_50/block2/unit_3/bottleneck_v1/conv3/BatchNorm/batchnorm_1/add_1/conv", "op": "Conv2D", "input": ["resnet_v1_50/block2/unit_3/bottleneck_v1/conv2/Relu", "resnet_v1_50/block2/unit_3/bottleneck_v1/conv3/weights"], "attr": {"dilations": {"list": {"i": ["1", "1", "1", "1"]}}, "T": {"type": "DT_FLOAT"}, "strides": {"list": {"i": ["1", "1", "1", "1"]}}, "data_format": {"s": "TkhXQw=="}, "explicit_paddings": {"list": {}}, "use_cudnn_on_gpu": {"b": true}, "padding": {"s": "U0FNRQ=="}}}, {"name": "resnet_v1_50/block2/unit_3/bottleneck_v1/conv3/BatchNorm/batchnorm_1/add_1", "op": "BiasAdd", "input": ["resnet_v1_50/block2/unit_3/bottleneck_v1/conv3/BatchNorm/batchnorm_1/add_1/conv", "resnet_v1_50/block2/unit_3/bottleneck_v1/conv3/Conv2D_bias"], "attr": {"T": {"type": "DT_FLOAT"}, "data_format": {"s": "TkhXQw=="}}}, {"name": "resnet_v1_50/block2/unit_3/bottleneck_v1/add", "op": "Add", "input": ["resnet_v1_50/block2/unit_2/bottleneck_v1/Relu", "resnet_v1_50/block2/unit_3/bottleneck_v1/conv3/BatchNorm/batchnorm_1/add_1"], "attr": {"T": {"type": "DT_FLOAT"}}}, {"name": "resnet_v1_50/block2/unit_3/bottleneck_v1/Relu", "op": "Relu", "input": ["resnet_v1_50/block2/unit_3/bottleneck_v1/add"], "attr": {"T": {"type": "DT_FLOAT"}}}, {"name": "resnet_v1_50/block2/unit_4/bottleneck_v1/shortcut/MaxPool", "op": "MaxPool", "input": ["resnet_v1_50/block2/unit_3/bottleneck_v1/Relu"], "attr": {"data_format": {"s": "TkhXQw=="}, "strides": {"list": {"i": ["1", "2", "2", "1"]}}, "ksize": {"list": {"i": ["1", "1", "1", "1"]}}, "padding": {"s": "U0FNRQ=="}, "T": {"type": "DT_FLOAT"}}}, {"name": "resnet_v1_50/block2/unit_4/bottleneck_v1/conv1/BatchNorm/batchnorm_1/add_1/conv", "op": "Conv2D", "input": ["resnet_v1_50/block2/unit_3/bottleneck_v1/Relu", "resnet_v1_50/block2/unit_4/bottleneck_v1/conv1/weights"], "attr": {"strides": {"list": {"i": ["1", "1", "1", "1"]}}, "data_format": {"s": "TkhXQw=="}, "explicit_paddings": {"list": {}}, "use_cudnn_on_gpu": {"b": true}, "padding": {"s": "U0FNRQ=="}, "dilations": {"list": {"i": ["1", "1", "1", "1"]}}, "T": {"type": "DT_FLOAT"}}}, {"name": "resnet_v1_50/block2/unit_4/bottleneck_v1/conv1/BatchNorm/batchnorm_1/add_1", "op": "BiasAdd", "input": ["resnet_v1_50/block2/unit_4/bottleneck_v1/conv1/BatchNorm/batchnorm_1/add_1/conv", "resnet_v1_50/block2/unit_4/bottleneck_v1/conv1/Conv2D_bias"], "attr": {"T": {"type": "DT_FLOAT"}, "data_format": {"s": "TkhXQw=="}}}, {"name": "resnet_v1_50/block2/unit_4/bottleneck_v1/conv1/Relu", "op": "Relu", "input": ["resnet_v1_50/block2/unit_4/bottleneck_v1/conv1/BatchNorm/batchnorm_1/add_1"], "attr": {"T": {"type": "DT_FLOAT"}}}, {"name": "resnet_v1_50/block2/unit_4/bottleneck_v1/Pad", "op": "Pad", "input": ["resnet_v1_50/block2/unit_4/bottleneck_v1/conv1/Relu", "resnet_v1_50/Pad_1/paddings"], "attr": {"T": {"type": "DT_FLOAT"}, "Tpaddings": {"type": "DT_INT32"}}}, {"name": "resnet_v1_50/block2/unit_4/bottleneck_v1/conv2/BatchNorm/batchnorm_1/add_1/conv", "op": "Conv2D", "input": ["resnet_v1_50/block2/unit_4/bottleneck_v1/Pad", "resnet_v1_50/block2/unit_4/bottleneck_v1/conv2/weights"], "attr": {"dilations": {"list": {"i": ["1", "1", "1", "1"]}}, "T": {"type": "DT_FLOAT"}, "data_format": {"s": "TkhXQw=="}, "strides": {"list": {"i": ["1", "2", "2", "1"]}}, "use_cudnn_on_gpu": {"b": true}, "explicit_paddings": {"list": {}}, "padding": {"s": "VkFMSUQ="}}}, {"name": "resnet_v1_50/block2/unit_4/bottleneck_v1/conv2/BatchNorm/batchnorm_1/add_1", "op": "BiasAdd", "input": ["resnet_v1_50/block2/unit_4/bottleneck_v1/conv2/BatchNorm/batchnorm_1/add_1/conv", "resnet_v1_50/block2/unit_4/bottleneck_v1/conv2/Conv2D_bias"], "attr": {"data_format": {"s": "TkhXQw=="}, "T": {"type": "DT_FLOAT"}}}, {"name": "resnet_v1_50/block2/unit_4/bottleneck_v1/conv2/Relu", "op": "Relu", "input": ["resnet_v1_50/block2/unit_4/bottleneck_v1/conv2/BatchNorm/batchnorm_1/add_1"], "attr": {"T": {"type": "DT_FLOAT"}}}, {"name": "resnet_v1_50/block2/unit_4/bottleneck_v1/conv3/BatchNorm/batchnorm_1/add_1/conv", "op": "Conv2D", "input": ["resnet_v1_50/block2/unit_4/bottleneck_v1/conv2/Relu", "resnet_v1_50/block2/unit_4/bottleneck_v1/conv3/weights"], "attr": {"use_cudnn_on_gpu": {"b": true}, "explicit_paddings": {"list": {}}, "padding": {"s": "U0FNRQ=="}, "dilations": {"list": {"i": ["1", "1", "1", "1"]}}, "T": {"type": "DT_FLOAT"}, "data_format": {"s": "TkhXQw=="}, "strides": {"list": {"i": ["1", "1", "1", "1"]}}}}, {"name": "resnet_v1_50/block2/unit_4/bottleneck_v1/conv3/BatchNorm/batchnorm_1/add_1", "op": "BiasAdd", "input": ["resnet_v1_50/block2/unit_4/bottleneck_v1/conv3/BatchNorm/batchnorm_1/add_1/conv", "resnet_v1_50/block2/unit_4/bottleneck_v1/conv3/Conv2D_bias"], "attr": {"T": {"type": "DT_FLOAT"}, "data_format": {"s": "TkhXQw=="}}}, {"name": "resnet_v1_50/block2/unit_4/bottleneck_v1/add", "op": "Add", "input": ["resnet_v1_50/block2/unit_4/bottleneck_v1/conv3/BatchNorm/batchnorm_1/add_1", "resnet_v1_50/block2/unit_4/bottleneck_v1/shortcut/MaxPool"], "attr": {"T": {"type": "DT_FLOAT"}}}, {"name": "resnet_v1_50/block2/unit_4/bottleneck_v1/Relu", "op": "Relu", "input": ["resnet_v1_50/block2/unit_4/bottleneck_v1/add"], "attr": {"T": {"type": "DT_FLOAT"}}}, {"name": "resnet_v1_50/block3/unit_1/bottleneck_v1/shortcut/BatchNorm/batchnorm_1/add_1/conv", "op": "Conv2D", "input": ["resnet_v1_50/block2/unit_4/bottleneck_v1/Relu", "resnet_v1_50/block3/unit_1/bottleneck_v1/shortcut/weights"], "attr": {"padding": {"s": "U0FNRQ=="}, "dilations": {"list": {"i": ["1", "1", "1", "1"]}}, "T": {"type": "DT_FLOAT"}, "strides": {"list": {"i": ["1", "1", "1", "1"]}}, "data_format": {"s": "TkhXQw=="}, "explicit_paddings": {"list": {}}, "use_cudnn_on_gpu": {"b": true}}}, {"name": "resnet_v1_50/block3/unit_1/bottleneck_v1/conv1/BatchNorm/batchnorm_1/add_1/conv", "op": "Conv2D", "input": ["resnet_v1_50/block2/unit_4/bottleneck_v1/Relu", "resnet_v1_50/block3/unit_1/bottleneck_v1/conv1/weights"], "attr": {"dilations": {"list": {"i": ["1", "1", "1", "1"]}}, "T": {"type": "DT_FLOAT"}, "data_format": {"s": "TkhXQw=="}, "strides": {"list": {"i": ["1", "1", "1", "1"]}}, "explicit_paddings": {"list": {}}, "use_cudnn_on_gpu": {"b": true}, "padding": {"s": "U0FNRQ=="}}}, {"name": "resnet_v1_50/block3/unit_1/bottleneck_v1/shortcut/BatchNorm/batchnorm_1/add_1", "op": "BiasAdd", "input": ["resnet_v1_50/block3/unit_1/bottleneck_v1/shortcut/BatchNorm/batchnorm_1/add_1/conv", "resnet_v1_50/block3/unit_1/bottleneck_v1/shortcut/Conv2D_bias"], "attr": {"T": {"type": "DT_FLOAT"}, "data_format": {"s": "TkhXQw=="}}}, {"name": "resnet_v1_50/block3/unit_1/bottleneck_v1/conv1/BatchNorm/batchnorm_1/add_1", "op": "BiasAdd", "input": ["resnet_v1_50/block3/unit_1/bottleneck_v1/conv1/BatchNorm/batchnorm_1/add_1/conv", "resnet_v1_50/block3/unit_1/bottleneck_v1/conv1/Conv2D_bias"], "attr": {"T": {"type": "DT_FLOAT"}, "data_format": {"s": "TkhXQw=="}}}, {"name": "resnet_v1_50/block3/unit_1/bottleneck_v1/conv1/Relu", "op": "Relu", "input": ["resnet_v1_50/block3/unit_1/bottleneck_v1/conv1/BatchNorm/batchnorm_1/add_1"], "attr": {"T": {"type": "DT_FLOAT"}}}, {"name": "resnet_v1_50/block3/unit_1/bottleneck_v1/conv2/BatchNorm/batchnorm_1/add_1/conv", "op": "Conv2D", "input": ["resnet_v1_50/block3/unit_1/bottleneck_v1/conv1/Relu", "resnet_v1_50/block3/unit_1/bottleneck_v1/conv2/weights"], "attr": {"dilations": {"list": {"i": ["1", "1", "1", "1"]}}, "T": {"type": "DT_FLOAT"}, "data_format": {"s": "TkhXQw=="}, "strides": {"list": {"i": ["1", "1", "1", "1"]}}, "use_cudnn_on_gpu": {"b": true}, "explicit_paddings": {"list": {}}, "padding": {"s": "U0FNRQ=="}}}, {"name": "resnet_v1_50/block3/unit_1/bottleneck_v1/conv2/BatchNorm/batchnorm_1/add_1", "op": "BiasAdd", "input": ["resnet_v1_50/block3/unit_1/bottleneck_v1/conv2/BatchNorm/batchnorm_1/add_1/conv", "resnet_v1_50/block3/unit_1/bottleneck_v1/conv2/Conv2D_bias"], "attr": {"T": {"type": "DT_FLOAT"}, "data_format": {"s": "TkhXQw=="}}}, {"name": "resnet_v1_50/block3/unit_1/bottleneck_v1/conv2/Relu", "op": "Relu", "input": ["resnet_v1_50/block3/unit_1/bottleneck_v1/conv2/BatchNorm/batchnorm_1/add_1"], "attr": {"T": {"type": "DT_FLOAT"}}}, {"name": "resnet_v1_50/block3/unit_1/bottleneck_v1/conv3/BatchNorm/batchnorm_1/add_1/conv", "op": "Conv2D", "input": ["resnet_v1_50/block3/unit_1/bottleneck_v1/conv2/Relu", "resnet_v1_50/block3/unit_1/bottleneck_v1/conv3/weights"], "attr": {"explicit_paddings": {"list": {}}, "use_cudnn_on_gpu": {"b": true}, "padding": {"s": "U0FNRQ=="}, "dilations": {"list": {"i": ["1", "1", "1", "1"]}}, "T": {"type": "DT_FLOAT"}, "strides": {"list": {"i": ["1", "1", "1", "1"]}}, "data_format": {"s": "TkhXQw=="}}}, {"name": "resnet_v1_50/block3/unit_1/bottleneck_v1/conv3/BatchNorm/batchnorm_1/add_1", "op": "BiasAdd", "input": ["resnet_v1_50/block3/unit_1/bottleneck_v1/conv3/BatchNorm/batchnorm_1/add_1/conv", "resnet_v1_50/block3/unit_1/bottleneck_v1/conv3/Conv2D_bias"], "attr": {"T": {"type": "DT_FLOAT"}, "data_format": {"s": "TkhXQw=="}}}, {"name": "resnet_v1_50/block3/unit_1/bottleneck_v1/add", "op": "Add", "input": ["resnet_v1_50/block3/unit_1/bottleneck_v1/conv3/BatchNorm/batchnorm_1/add_1", "resnet_v1_50/block3/unit_1/bottleneck_v1/shortcut/BatchNorm/batchnorm_1/add_1"], "attr": {"T": {"type": "DT_FLOAT"}}}, {"name": "resnet_v1_50/block3/unit_1/bottleneck_v1/Relu", "op": "Relu", "input": ["resnet_v1_50/block3/unit_1/bottleneck_v1/add"], "attr": {"T": {"type": "DT_FLOAT"}}}, {"name": "resnet_v1_50/block3/unit_2/bottleneck_v1/conv1/BatchNorm/batchnorm_1/add_1/conv", "op": "Conv2D", "input": ["resnet_v1_50/block3/unit_1/bottleneck_v1/Relu", "resnet_v1_50/block3/unit_2/bottleneck_v1/conv1/weights"], "attr": {"dilations": {"list": {"i": ["1", "1", "1", "1"]}}, "T": {"type": "DT_FLOAT"}, "data_format": {"s": "TkhXQw=="}, "strides": {"list": {"i": ["1", "1", "1", "1"]}}, "use_cudnn_on_gpu": {"b": true}, "explicit_paddings": {"list": {}}, "padding": {"s": "U0FNRQ=="}}}, {"name": "resnet_v1_50/block3/unit_2/bottleneck_v1/conv1/BatchNorm/batchnorm_1/add_1", "op": "BiasAdd", "input": ["resnet_v1_50/block3/unit_2/bottleneck_v1/conv1/BatchNorm/batchnorm_1/add_1/conv", "resnet_v1_50/block3/unit_2/bottleneck_v1/conv1/Conv2D_bias"], "attr": {"T": {"type": "DT_FLOAT"}, "data_format": {"s": "TkhXQw=="}}}, {"name": "resnet_v1_50/block3/unit_2/bottleneck_v1/conv1/Relu", "op": "Relu", "input": ["resnet_v1_50/block3/unit_2/bottleneck_v1/conv1/BatchNorm/batchnorm_1/add_1"], "attr": {"T": {"type": "DT_FLOAT"}}}, {"name": "resnet_v1_50/block3/unit_2/bottleneck_v1/conv2/BatchNorm/batchnorm_1/add_1/conv", "op": "Conv2D", "input": ["resnet_v1_50/block3/unit_2/bottleneck_v1/conv1/Relu", "resnet_v1_50/block3/unit_2/bottleneck_v1/conv2/weights"], "attr": {"T": {"type": "DT_FLOAT"}, "data_format": {"s": "TkhXQw=="}, "strides": {"list": {"i": ["1", "1", "1", "1"]}}, "use_cudnn_on_gpu": {"b": true}, "explicit_paddings": {"list": {}}, "padding": {"s": "U0FNRQ=="}, "dilations": {"list": {"i": ["1", "1", "1", "1"]}}}}, {"name": "resnet_v1_50/block3/unit_2/bottleneck_v1/conv2/BatchNorm/batchnorm_1/add_1", "op": "BiasAdd", "input": ["resnet_v1_50/block3/unit_2/bottleneck_v1/conv2/BatchNorm/batchnorm_1/add_1/conv", "resnet_v1_50/block3/unit_2/bottleneck_v1/conv2/Conv2D_bias"], "attr": {"T": {"type": "DT_FLOAT"}, "data_format": {"s": "TkhXQw=="}}}, {"name": "resnet_v1_50/block3/unit_2/bottleneck_v1/conv2/Relu", "op": "Relu", "input": ["resnet_v1_50/block3/unit_2/bottleneck_v1/conv2/BatchNorm/batchnorm_1/add_1"], "attr": {"T": {"type": "DT_FLOAT"}}}, {"name": "resnet_v1_50/block3/unit_2/bottleneck_v1/conv3/BatchNorm/batchnorm_1/add_1/conv", "op": "Conv2D", "input": ["resnet_v1_50/block3/unit_2/bottleneck_v1/conv2/Relu", "resnet_v1_50/block3/unit_2/bottleneck_v1/conv3/weights"], "attr": {"data_format": {"s": "TkhXQw=="}, "strides": {"list": {"i": ["1", "1", "1", "1"]}}, "use_cudnn_on_gpu": {"b": true}, "explicit_paddings": {"list": {}}, "padding": {"s": "U0FNRQ=="}, "dilations": {"list": {"i": ["1", "1", "1", "1"]}}, "T": {"type": "DT_FLOAT"}}}, {"name": "resnet_v1_50/block3/unit_2/bottleneck_v1/conv3/BatchNorm/batchnorm_1/add_1", "op": "BiasAdd", "input": ["resnet_v1_50/block3/unit_2/bottleneck_v1/conv3/BatchNorm/batchnorm_1/add_1/conv", "resnet_v1_50/block3/unit_2/bottleneck_v1/conv3/Conv2D_bias"], "attr": {"T": {"type": "DT_FLOAT"}, "data_format": {"s": "TkhXQw=="}}}, {"name": "resnet_v1_50/block3/unit_2/bottleneck_v1/add", "op": "Add", "input": ["resnet_v1_50/block3/unit_1/bottleneck_v1/Relu", "resnet_v1_50/block3/unit_2/bottleneck_v1/conv3/BatchNorm/batchnorm_1/add_1"], "attr": {"T": {"type": "DT_FLOAT"}}}, {"name": "resnet_v1_50/block3/unit_2/bottleneck_v1/Relu", "op": "Relu", "input": ["resnet_v1_50/block3/unit_2/bottleneck_v1/add"], "attr": {"T": {"type": "DT_FLOAT"}}}, {"name": "resnet_v1_50/block3/unit_3/bottleneck_v1/conv1/BatchNorm/batchnorm_1/add_1/conv", "op": "Conv2D", "input": ["resnet_v1_50/block3/unit_2/bottleneck_v1/Relu", "resnet_v1_50/block3/unit_3/bottleneck_v1/conv1/weights"], "attr": {"padding": {"s": "U0FNRQ=="}, "dilations": {"list": {"i": ["1", "1", "1", "1"]}}, "T": {"type": "DT_FLOAT"}, "strides": {"list": {"i": ["1", "1", "1", "1"]}}, "data_format": {"s": "TkhXQw=="}, "explicit_paddings": {"list": {}}, "use_cudnn_on_gpu": {"b": true}}}, {"name": "resnet_v1_50/block3/unit_3/bottleneck_v1/conv1/BatchNorm/batchnorm_1/add_1", "op": "BiasAdd", "input": ["resnet_v1_50/block3/unit_3/bottleneck_v1/conv1/BatchNorm/batchnorm_1/add_1/conv", "resnet_v1_50/block3/unit_3/bottleneck_v1/conv1/Conv2D_bias"], "attr": {"data_format": {"s": "TkhXQw=="}, "T": {"type": "DT_FLOAT"}}}, {"name": "resnet_v1_50/block3/unit_3/bottleneck_v1/conv1/Relu", "op": "Relu", "input": ["resnet_v1_50/block3/unit_3/bottleneck_v1/conv1/BatchNorm/batchnorm_1/add_1"], "attr": {"T": {"type": "DT_FLOAT"}}}, {"name": "resnet_v1_50/block3/unit_3/bottleneck_v1/conv2/BatchNorm/batchnorm_1/add_1/conv", "op": "Conv2D", "input": ["resnet_v1_50/block3/unit_3/bottleneck_v1/conv1/Relu", "resnet_v1_50/block3/unit_3/bottleneck_v1/conv2/weights"], "attr": {"dilations": {"list": {"i": ["1", "1", "1", "1"]}}, "T": {"type": "DT_FLOAT"}, "strides": {"list": {"i": ["1", "1", "1", "1"]}}, "data_format": {"s": "TkhXQw=="}, "use_cudnn_on_gpu": {"b": true}, "explicit_paddings": {"list": {}}, "padding": {"s": "U0FNRQ=="}}}, {"name": "resnet_v1_50/block3/unit_3/bottleneck_v1/conv2/BatchNorm/batchnorm_1/add_1", "op": "BiasAdd", "input": ["resnet_v1_50/block3/unit_3/bottleneck_v1/conv2/BatchNorm/batchnorm_1/add_1/conv", "resnet_v1_50/block3/unit_3/bottleneck_v1/conv2/Conv2D_bias"], "attr": {"T": {"type": "DT_FLOAT"}, "data_format": {"s": "TkhXQw=="}}}, {"name": "resnet_v1_50/block3/unit_3/bottleneck_v1/conv2/Relu", "op": "Relu", "input": ["resnet_v1_50/block3/unit_3/bottleneck_v1/conv2/BatchNorm/batchnorm_1/add_1"], "attr": {"T": {"type": "DT_FLOAT"}}}, {"name": "resnet_v1_50/block3/unit_3/bottleneck_v1/conv3/BatchNorm/batchnorm_1/add_1/conv", "op": "Conv2D", "input": ["resnet_v1_50/block3/unit_3/bottleneck_v1/conv2/Relu", "resnet_v1_50/block3/unit_3/bottleneck_v1/conv3/weights"], "attr": {"dilations": {"list": {"i": ["1", "1", "1", "1"]}}, "T": {"type": "DT_FLOAT"}, "data_format": {"s": "TkhXQw=="}, "strides": {"list": {"i": ["1", "1", "1", "1"]}}, "explicit_paddings": {"list": {}}, "use_cudnn_on_gpu": {"b": true}, "padding": {"s": "U0FNRQ=="}}}, {"name": "resnet_v1_50/block3/unit_3/bottleneck_v1/conv3/BatchNorm/batchnorm_1/add_1", "op": "BiasAdd", "input": ["resnet_v1_50/block3/unit_3/bottleneck_v1/conv3/BatchNorm/batchnorm_1/add_1/conv", "resnet_v1_50/block3/unit_3/bottleneck_v1/conv3/Conv2D_bias"], "attr": {"T": {"type": "DT_FLOAT"}, "data_format": {"s": "TkhXQw=="}}}, {"name": "resnet_v1_50/block3/unit_3/bottleneck_v1/add", "op": "Add", "input": ["resnet_v1_50/block3/unit_2/bottleneck_v1/Relu", "resnet_v1_50/block3/unit_3/bottleneck_v1/conv3/BatchNorm/batchnorm_1/add_1"], "attr": {"T": {"type": "DT_FLOAT"}}}, {"name": "resnet_v1_50/block3/unit_3/bottleneck_v1/Relu", "op": "Relu", "input": ["resnet_v1_50/block3/unit_3/bottleneck_v1/add"], "attr": {"T": {"type": "DT_FLOAT"}}}, {"name": "resnet_v1_50/block3/unit_4/bottleneck_v1/conv1/BatchNorm/batchnorm_1/add_1/conv", "op": "Conv2D", "input": ["resnet_v1_50/block3/unit_3/bottleneck_v1/Relu", "resnet_v1_50/block3/unit_4/bottleneck_v1/conv1/weights"], "attr": {"dilations": {"list": {"i": ["1", "1", "1", "1"]}}, "T": {"type": "DT_FLOAT"}, "data_format": {"s": "TkhXQw=="}, "strides": {"list": {"i": ["1", "1", "1", "1"]}}, "explicit_paddings": {"list": {}}, "use_cudnn_on_gpu": {"b": true}, "padding": {"s": "U0FNRQ=="}}}, {"name": "resnet_v1_50/block3/unit_4/bottleneck_v1/conv1/BatchNorm/batchnorm_1/add_1", "op": "BiasAdd", "input": ["resnet_v1_50/block3/unit_4/bottleneck_v1/conv1/BatchNorm/batchnorm_1/add_1/conv", "resnet_v1_50/block3/unit_4/bottleneck_v1/conv1/Conv2D_bias"], "attr": {"T": {"type": "DT_FLOAT"}, "data_format": {"s": "TkhXQw=="}}}, {"name": "resnet_v1_50/block3/unit_4/bottleneck_v1/conv1/Relu", "op": "Relu", "input": ["resnet_v1_50/block3/unit_4/bottleneck_v1/conv1/BatchNorm/batchnorm_1/add_1"], "attr": {"T": {"type": "DT_FLOAT"}}}, {"name": "resnet_v1_50/block3/unit_4/bottleneck_v1/conv2/BatchNorm/batchnorm_1/add_1/conv", "op": "Conv2D", "input": ["resnet_v1_50/block3/unit_4/bottleneck_v1/conv1/Relu", "resnet_v1_50/block3/unit_4/bottleneck_v1/conv2/weights"], "attr": {"padding": {"s": "U0FNRQ=="}, "dilations": {"list": {"i": ["1", "1", "1", "1"]}}, "T": {"type": "DT_FLOAT"}, "strides": {"list": {"i": ["1", "1", "1", "1"]}}, "data_format": {"s": "TkhXQw=="}, "explicit_paddings": {"list": {}}, "use_cudnn_on_gpu": {"b": true}}}, {"name": "resnet_v1_50/block3/unit_4/bottleneck_v1/conv2/BatchNorm/batchnorm_1/add_1", "op": "BiasAdd", "input": ["resnet_v1_50/block3/unit_4/bottleneck_v1/conv2/BatchNorm/batchnorm_1/add_1/conv", "resnet_v1_50/block3/unit_4/bottleneck_v1/conv2/Conv2D_bias"], "attr": {"T": {"type": "DT_FLOAT"}, "data_format": {"s": "TkhXQw=="}}}, {"name": "resnet_v1_50/block3/unit_4/bottleneck_v1/conv2/Relu", "op": "Relu", "input": ["resnet_v1_50/block3/unit_4/bottleneck_v1/conv2/BatchNorm/batchnorm_1/add_1"], "attr": {"T": {"type": "DT_FLOAT"}}}, {"name": "resnet_v1_50/block3/unit_4/bottleneck_v1/conv3/BatchNorm/batchnorm_1/add_1/conv", "op": "Conv2D", "input": ["resnet_v1_50/block3/unit_4/bottleneck_v1/conv2/Relu", "resnet_v1_50/block3/unit_4/bottleneck_v1/conv3/weights"], "attr": {"dilations": {"list": {"i": ["1", "1", "1", "1"]}}, "T": {"type": "DT_FLOAT"}, "data_format": {"s": "TkhXQw=="}, "strides": {"list": {"i": ["1", "1", "1", "1"]}}, "use_cudnn_on_gpu": {"b": true}, "explicit_paddings": {"list": {}}, "padding": {"s": "U0FNRQ=="}}}, {"name": "resnet_v1_50/block3/unit_4/bottleneck_v1/conv3/BatchNorm/batchnorm_1/add_1", "op": "BiasAdd", "input": ["resnet_v1_50/block3/unit_4/bottleneck_v1/conv3/BatchNorm/batchnorm_1/add_1/conv", "resnet_v1_50/block3/unit_4/bottleneck_v1/conv3/Conv2D_bias"], "attr": {"T": {"type": "DT_FLOAT"}, "data_format": {"s": "TkhXQw=="}}}, {"name": "resnet_v1_50/block3/unit_4/bottleneck_v1/add", "op": "Add", "input": ["resnet_v1_50/block3/unit_3/bottleneck_v1/Relu", "resnet_v1_50/block3/unit_4/bottleneck_v1/conv3/BatchNorm/batchnorm_1/add_1"], "attr": {"T": {"type": "DT_FLOAT"}}}, {"name": "resnet_v1_50/block3/unit_4/bottleneck_v1/Relu", "op": "Relu", "input": ["resnet_v1_50/block3/unit_4/bottleneck_v1/add"], "attr": {"T": {"type": "DT_FLOAT"}}}, {"name": "resnet_v1_50/block3/unit_5/bottleneck_v1/conv1/BatchNorm/batchnorm_1/add_1/conv", "op": "Conv2D", "input": ["resnet_v1_50/block3/unit_4/bottleneck_v1/Relu", "resnet_v1_50/block3/unit_5/bottleneck_v1/conv1/weights"], "attr": {"dilations": {"list": {"i": ["1", "1", "1", "1"]}}, "T": {"type": "DT_FLOAT"}, "data_format": {"s": "TkhXQw=="}, "strides": {"list": {"i": ["1", "1", "1", "1"]}}, "use_cudnn_on_gpu": {"b": true}, "explicit_paddings": {"list": {}}, "padding": {"s": "U0FNRQ=="}}}, {"name": "resnet_v1_50/block3/unit_5/bottleneck_v1/conv1/BatchNorm/batchnorm_1/add_1", "op": "BiasAdd", "input": ["resnet_v1_50/block3/unit_5/bottleneck_v1/conv1/BatchNorm/batchnorm_1/add_1/conv", "resnet_v1_50/block3/unit_5/bottleneck_v1/conv1/Conv2D_bias"], "attr": {"data_format": {"s": "TkhXQw=="}, "T": {"type": "DT_FLOAT"}}}, {"name": "resnet_v1_50/block3/unit_5/bottleneck_v1/conv1/Relu", "op": "Relu", "input": ["resnet_v1_50/block3/unit_5/bottleneck_v1/conv1/BatchNorm/batchnorm_1/add_1"], "attr": {"T": {"type": "DT_FLOAT"}}}, {"name": "resnet_v1_50/block3/unit_5/bottleneck_v1/conv2/BatchNorm/batchnorm_1/add_1/conv", "op": "Conv2D", "input": ["resnet_v1_50/block3/unit_5/bottleneck_v1/conv1/Relu", "resnet_v1_50/block3/unit_5/bottleneck_v1/conv2/weights"], "attr": {"padding": {"s": "U0FNRQ=="}, "dilations": {"list": {"i": ["1", "1", "1", "1"]}}, "T": {"type": "DT_FLOAT"}, "data_format": {"s": "TkhXQw=="}, "strides": {"list": {"i": ["1", "1", "1", "1"]}}, "explicit_paddings": {"list": {}}, "use_cudnn_on_gpu": {"b": true}}}, {"name": "resnet_v1_50/block3/unit_5/bottleneck_v1/conv2/BatchNorm/batchnorm_1/add_1", "op": "BiasAdd", "input": ["resnet_v1_50/block3/unit_5/bottleneck_v1/conv2/BatchNorm/batchnorm_1/add_1/conv", "resnet_v1_50/block3/unit_5/bottleneck_v1/conv2/Conv2D_bias"], "attr": {"T": {"type": "DT_FLOAT"}, "data_format": {"s": "TkhXQw=="}}}, {"name": "resnet_v1_50/block3/unit_5/bottleneck_v1/conv2/Relu", "op": "Relu", "input": ["resnet_v1_50/block3/unit_5/bottleneck_v1/conv2/BatchNorm/batchnorm_1/add_1"], "attr": {"T": {"type": "DT_FLOAT"}}}, {"name": "resnet_v1_50/block3/unit_5/bottleneck_v1/conv3/BatchNorm/batchnorm_1/add_1/conv", "op": "Conv2D", "input": ["resnet_v1_50/block3/unit_5/bottleneck_v1/conv2/Relu", "resnet_v1_50/block3/unit_5/bottleneck_v1/conv3/weights"], "attr": {"dilations": {"list": {"i": ["1", "1", "1", "1"]}}, "T": {"type": "DT_FLOAT"}, "data_format": {"s": "TkhXQw=="}, "strides": {"list": {"i": ["1", "1", "1", "1"]}}, "use_cudnn_on_gpu": {"b": true}, "explicit_paddings": {"list": {}}, "padding": {"s": "U0FNRQ=="}}}, {"name": "resnet_v1_50/block3/unit_5/bottleneck_v1/conv3/BatchNorm/batchnorm_1/add_1", "op": "BiasAdd", "input": ["resnet_v1_50/block3/unit_5/bottleneck_v1/conv3/BatchNorm/batchnorm_1/add_1/conv", "resnet_v1_50/block3/unit_5/bottleneck_v1/conv3/Conv2D_bias"], "attr": {"T": {"type": "DT_FLOAT"}, "data_format": {"s": "TkhXQw=="}}}, {"name": "resnet_v1_50/block3/unit_5/bottleneck_v1/add", "op": "Add", "input": ["resnet_v1_50/block3/unit_4/bottleneck_v1/Relu", "resnet_v1_50/block3/unit_5/bottleneck_v1/conv3/BatchNorm/batchnorm_1/add_1"], "attr": {"T": {"type": "DT_FLOAT"}}}, {"name": "resnet_v1_50/block3/unit_5/bottleneck_v1/Relu", "op": "Relu", "input": ["resnet_v1_50/block3/unit_5/bottleneck_v1/add"], "attr": {"T": {"type": "DT_FLOAT"}}}, {"name": "resnet_v1_50/block3/unit_6/bottleneck_v1/shortcut/MaxPool", "op": "MaxPool", "input": ["resnet_v1_50/block3/unit_5/bottleneck_v1/Relu"], "attr": {"data_format": {"s": "TkhXQw=="}, "strides": {"list": {"i": ["1", "1", "1", "1"]}}, "ksize": {"list": {"i": ["1", "1", "1", "1"]}}, "padding": {"s": "U0FNRQ=="}, "T": {"type": "DT_FLOAT"}}}, {"name": "resnet_v1_50/block3/unit_6/bottleneck_v1/conv1/BatchNorm/batchnorm_1/add_1/conv", "op": "Conv2D", "input": ["resnet_v1_50/block3/unit_5/bottleneck_v1/Relu", "resnet_v1_50/block3/unit_6/bottleneck_v1/conv1/weights"], "attr": {"explicit_paddings": {"list": {}}, "use_cudnn_on_gpu": {"b": true}, "padding": {"s": "U0FNRQ=="}, "dilations": {"list": {"i": ["1", "1", "1", "1"]}}, "T": {"type": "DT_FLOAT"}, "data_format": {"s": "TkhXQw=="}, "strides": {"list": {"i": ["1", "1", "1", "1"]}}}}, {"name": "resnet_v1_50/block3/unit_6/bottleneck_v1/conv1/BatchNorm/batchnorm_1/add_1", "op": "BiasAdd", "input": ["resnet_v1_50/block3/unit_6/bottleneck_v1/conv1/BatchNorm/batchnorm_1/add_1/conv", "resnet_v1_50/block3/unit_6/bottleneck_v1/conv1/Conv2D_bias"], "attr": {"T": {"type": "DT_FLOAT"}, "data_format": {"s": "TkhXQw=="}}}, {"name": "resnet_v1_50/block3/unit_6/bottleneck_v1/conv1/Relu", "op": "Relu", "input": ["resnet_v1_50/block3/unit_6/bottleneck_v1/conv1/BatchNorm/batchnorm_1/add_1"], "attr": {"T": {"type": "DT_FLOAT"}}}, {"name": "resnet_v1_50/block3/unit_6/bottleneck_v1/Pad", "op": "Pad", "input": ["resnet_v1_50/block3/unit_6/bottleneck_v1/conv1/Relu", "resnet_v1_50/Pad_1/paddings"], "attr": {"T": {"type": "DT_FLOAT"}, "Tpaddings": {"type": "DT_INT32"}}}, {"name": "resnet_v1_50/block3/unit_6/bottleneck_v1/conv2/BatchNorm/batchnorm_1/add_1/conv", "op": "Conv2D", "input": ["resnet_v1_50/block3/unit_6/bottleneck_v1/Pad", "resnet_v1_50/block3/unit_6/bottleneck_v1/conv2/weights"], "attr": {"dilations": {"list": {"i": ["1", "1", "1", "1"]}}, "T": {"type": "DT_FLOAT"}, "strides": {"list": {"i": ["1", "1", "1", "1"]}}, "data_format": {"s": "TkhXQw=="}, "explicit_paddings": {"list": {}}, "use_cudnn_on_gpu": {"b": true}, "padding": {"s": "VkFMSUQ="}}}, {"name": "resnet_v1_50/block3/unit_6/bottleneck_v1/conv2/BatchNorm/batchnorm_1/add_1", "op": "BiasAdd", "input": ["resnet_v1_50/block3/unit_6/bottleneck_v1/conv2/BatchNorm/batchnorm_1/add_1/conv", "resnet_v1_50/block3/unit_6/bottleneck_v1/conv2/Conv2D_bias"], "attr": {"T": {"type": "DT_FLOAT"}, "data_format": {"s": "TkhXQw=="}}}, {"name": "resnet_v1_50/block3/unit_6/bottleneck_v1/conv2/Relu", "op": "Relu", "input": ["resnet_v1_50/block3/unit_6/bottleneck_v1/conv2/BatchNorm/batchnorm_1/add_1"], "attr": {"T": {"type": "DT_FLOAT"}}}, {"name": "resnet_v1_50/block3/unit_6/bottleneck_v1/conv3/BatchNorm/batchnorm_1/add_1/conv", "op": "Conv2D", "input": ["resnet_v1_50/block3/unit_6/bottleneck_v1/conv2/Relu", "resnet_v1_50/block3/unit_6/bottleneck_v1/conv3/weights"], "attr": {"padding": {"s": "U0FNRQ=="}, "dilations": {"list": {"i": ["1", "1", "1", "1"]}}, "T": {"type": "DT_FLOAT"}, "strides": {"list": {"i": ["1", "1", "1", "1"]}}, "data_format": {"s": "TkhXQw=="}, "explicit_paddings": {"list": {}}, "use_cudnn_on_gpu": {"b": true}}}, {"name": "resnet_v1_50/block3/unit_6/bottleneck_v1/conv3/BatchNorm/batchnorm_1/add_1", "op": "BiasAdd", "input": ["resnet_v1_50/block3/unit_6/bottleneck_v1/conv3/BatchNorm/batchnorm_1/add_1/conv", "resnet_v1_50/block3/unit_6/bottleneck_v1/conv3/Conv2D_bias"], "attr": {"data_format": {"s": "TkhXQw=="}, "T": {"type": "DT_FLOAT"}}}, {"name": "resnet_v1_50/block3/unit_6/bottleneck_v1/add", "op": "Add", "input": ["resnet_v1_50/block3/unit_6/bottleneck_v1/conv3/BatchNorm/batchnorm_1/add_1", "resnet_v1_50/block3/unit_6/bottleneck_v1/shortcut/MaxPool"], "attr": {"T": {"type": "DT_FLOAT"}}}, {"name": "resnet_v1_50/block3/unit_6/bottleneck_v1/Relu", "op": "Relu", "input": ["resnet_v1_50/block3/unit_6/bottleneck_v1/add"], "attr": {"T": {"type": "DT_FLOAT"}}}, {"name": "resnet_v1_50/block4/unit_1/bottleneck_v1/shortcut/BatchNorm/batchnorm_1/add_1/conv", "op": "Conv2D", "input": ["resnet_v1_50/block3/unit_6/bottleneck_v1/Relu", "resnet_v1_50/block4/unit_1/bottleneck_v1/shortcut/weights"], "attr": {"dilations": {"list": {"i": ["1", "1", "1", "1"]}}, "T": {"type": "DT_FLOAT"}, "strides": {"list": {"i": ["1", "1", "1", "1"]}}, "data_format": {"s": "TkhXQw=="}, "use_cudnn_on_gpu": {"b": true}, "explicit_paddings": {"list": {}}, "padding": {"s": "U0FNRQ=="}}}, {"name": "resnet_v1_50/block4/unit_1/bottleneck_v1/conv1/BatchNorm/batchnorm_1/add_1/conv", "op": "Conv2D", "input": ["resnet_v1_50/block3/unit_6/bottleneck_v1/Relu", "resnet_v1_50/block4/unit_1/bottleneck_v1/conv1/weights"], "attr": {"T": {"type": "DT_FLOAT"}, "data_format": {"s": "TkhXQw=="}, "strides": {"list": {"i": ["1", "1", "1", "1"]}}, "explicit_paddings": {"list": {}}, "use_cudnn_on_gpu": {"b": true}, "padding": {"s": "U0FNRQ=="}, "dilations": {"list": {"i": ["1", "1", "1", "1"]}}}}, {"name": "resnet_v1_50/block4/unit_1/bottleneck_v1/shortcut/BatchNorm/batchnorm_1/add_1", "op": "BiasAdd", "input": ["resnet_v1_50/block4/unit_1/bottleneck_v1/shortcut/BatchNorm/batchnorm_1/add_1/conv", "resnet_v1_50/block4/unit_1/bottleneck_v1/shortcut/Conv2D_bias"], "attr": {"T": {"type": "DT_FLOAT"}, "data_format": {"s": "TkhXQw=="}}}, {"name": "resnet_v1_50/block4/unit_1/bottleneck_v1/conv1/BatchNorm/batchnorm_1/add_1", "op": "BiasAdd", "input": ["resnet_v1_50/block4/unit_1/bottleneck_v1/conv1/BatchNorm/batchnorm_1/add_1/conv", "resnet_v1_50/block4/unit_1/bottleneck_v1/conv1/Conv2D_bias"], "attr": {"T": {"type": "DT_FLOAT"}, "data_format": {"s": "TkhXQw=="}}}, {"name": "resnet_v1_50/block4/unit_1/bottleneck_v1/conv1/Relu", "op": "Relu", "input": ["resnet_v1_50/block4/unit_1/bottleneck_v1/conv1/BatchNorm/batchnorm_1/add_1"], "attr": {"T": {"type": "DT_FLOAT"}}}, {"name": "resnet_v1_50/block4/unit_1/bottleneck_v1/conv2/BatchNorm/batchnorm_1/add_1/conv", "op": "Conv2D", "input": ["resnet_v1_50/block4/unit_1/bottleneck_v1/conv1/Relu", "resnet_v1_50/block4/unit_1/bottleneck_v1/conv2/weights"], "attr": {"T": {"type": "DT_FLOAT"}, "strides": {"list": {"i": ["1", "1", "1", "1"]}}, "data_format": {"s": "TkhXQw=="}, "use_cudnn_on_gpu": {"b": true}, "explicit_paddings": {"list": {}}, "padding": {"s": "U0FNRQ=="}, "dilations": {"list": {"i": ["2", "2", "1", "1"]}}}}, {"name": "resnet_v1_50/block4/unit_1/bottleneck_v1/conv2/BatchNorm/batchnorm_1/add_1", "op": "BiasAdd", "input": ["resnet_v1_50/block4/unit_1/bottleneck_v1/conv2/BatchNorm/batchnorm_1/add_1/conv", "resnet_v1_50/block4/unit_1/bottleneck_v1/conv2/Conv2D_bias"], "attr": {"T": {"type": "DT_FLOAT"}, "data_format": {"s": "TkhXQw=="}}}, {"name": "resnet_v1_50/block4/unit_1/bottleneck_v1/conv2/Relu", "op": "Relu", "input": ["resnet_v1_50/block4/unit_1/bottleneck_v1/conv2/BatchNorm/batchnorm_1/add_1"], "attr": {"T": {"type": "DT_FLOAT"}}}, {"name": "resnet_v1_50/block4/unit_1/bottleneck_v1/conv3/BatchNorm/batchnorm_1/add_1/conv", "op": "Conv2D", "input": ["resnet_v1_50/block4/unit_1/bottleneck_v1/conv2/Relu", "resnet_v1_50/block4/unit_1/bottleneck_v1/conv3/weights"], "attr": {"dilations": {"list": {"i": ["1", "1", "1", "1"]}}, "T": {"type": "DT_FLOAT"}, "data_format": {"s": "TkhXQw=="}, "strides": {"list": {"i": ["1", "1", "1", "1"]}}, "explicit_paddings": {"list": {}}, "use_cudnn_on_gpu": {"b": true}, "padding": {"s": "U0FNRQ=="}}}, {"name": "resnet_v1_50/block4/unit_1/bottleneck_v1/conv3/BatchNorm/batchnorm_1/add_1", "op": "BiasAdd", "input": ["resnet_v1_50/block4/unit_1/bottleneck_v1/conv3/BatchNorm/batchnorm_1/add_1/conv", "resnet_v1_50/block4/unit_1/bottleneck_v1/conv3/Conv2D_bias"], "attr": {"T": {"type": "DT_FLOAT"}, "data_format": {"s": "TkhXQw=="}}}, {"name": "resnet_v1_50/block4/unit_1/bottleneck_v1/add", "op": "Add", "input": ["resnet_v1_50/block4/unit_1/bottleneck_v1/conv3/BatchNorm/batchnorm_1/add_1", "resnet_v1_50/block4/unit_1/bottleneck_v1/shortcut/BatchNorm/batchnorm_1/add_1"], "attr": {"T": {"type": "DT_FLOAT"}}}, {"name": "resnet_v1_50/block4/unit_1/bottleneck_v1/Relu", "op": "Relu", "input": ["resnet_v1_50/block4/unit_1/bottleneck_v1/add"], "attr": {"T": {"type": "DT_FLOAT"}}}, {"name": "resnet_v1_50/block4/unit_2/bottleneck_v1/conv1/BatchNorm/batchnorm_1/add_1/conv", "op": "Conv2D", "input": ["resnet_v1_50/block4/unit_1/bottleneck_v1/Relu", "resnet_v1_50/block4/unit_2/bottleneck_v1/conv1/weights"], "attr": {"T": {"type": "DT_FLOAT"}, "strides": {"list": {"i": ["1", "1", "1", "1"]}}, "data_format": {"s": "TkhXQw=="}, "explicit_paddings": {"list": {}}, "use_cudnn_on_gpu": {"b": true}, "padding": {"s": "U0FNRQ=="}, "dilations": {"list": {"i": ["1", "1", "1", "1"]}}}}, {"name": "resnet_v1_50/block4/unit_2/bottleneck_v1/conv1/BatchNorm/batchnorm_1/add_1", "op": "BiasAdd", "input": ["resnet_v1_50/block4/unit_2/bottleneck_v1/conv1/BatchNorm/batchnorm_1/add_1/conv", "resnet_v1_50/block4/unit_2/bottleneck_v1/conv1/Conv2D_bias"], "attr": {"data_format": {"s": "TkhXQw=="}, "T": {"type": "DT_FLOAT"}}}, {"name": "resnet_v1_50/block4/unit_2/bottleneck_v1/conv1/Relu", "op": "Relu", "input": ["resnet_v1_50/block4/unit_2/bottleneck_v1/conv1/BatchNorm/batchnorm_1/add_1"], "attr": {"T": {"type": "DT_FLOAT"}}}, {"name": "resnet_v1_50/block4/unit_2/bottleneck_v1/conv2/BatchNorm/batchnorm_1/add_1/conv", "op": "Conv2D", "input": ["resnet_v1_50/block4/unit_2/bottleneck_v1/conv1/Relu", "resnet_v1_50/block4/unit_2/bottleneck_v1/conv2/weights"], "attr": {"dilations": {"list": {"i": ["2", "2", "1", "1"]}}, "T": {"type": "DT_FLOAT"}, "strides": {"list": {"i": ["1", "1", "1", "1"]}}, "data_format": {"s": "TkhXQw=="}, "explicit_paddings": {"list": {}}, "use_cudnn_on_gpu": {"b": true}, "padding": {"s": "U0FNRQ=="}}}, {"name": "resnet_v1_50/block4/unit_2/bottleneck_v1/conv2/BatchNorm/batchnorm_1/add_1", "op": "BiasAdd", "input": ["resnet_v1_50/block4/unit_2/bottleneck_v1/conv2/BatchNorm/batchnorm_1/add_1/conv", "resnet_v1_50/block4/unit_2/bottleneck_v1/conv2/Conv2D_bias"], "attr": {"T": {"type": "DT_FLOAT"}, "data_format": {"s": "TkhXQw=="}}}, {"name": "resnet_v1_50/block4/unit_2/bottleneck_v1/conv2/Relu", "op": "Relu", "input": ["resnet_v1_50/block4/unit_2/bottleneck_v1/conv2/BatchNorm/batchnorm_1/add_1"], "attr": {"T": {"type": "DT_FLOAT"}}}, {"name": "resnet_v1_50/block4/unit_2/bottleneck_v1/conv3/BatchNorm/batchnorm_1/add_1/conv", "op": "Conv2D", "input": ["resnet_v1_50/block4/unit_2/bottleneck_v1/conv2/Relu", "resnet_v1_50/block4/unit_2/bottleneck_v1/conv3/weights"], "attr": {"data_format": {"s": "TkhXQw=="}, "strides": {"list": {"i": ["1", "1", "1", "1"]}}, "use_cudnn_on_gpu": {"b": true}, "explicit_paddings": {"list": {}}, "padding": {"s": "U0FNRQ=="}, "dilations": {"list": {"i": ["1", "1", "1", "1"]}}, "T": {"type": "DT_FLOAT"}}}, {"name": "resnet_v1_50/block4/unit_2/bottleneck_v1/conv3/BatchNorm/batchnorm_1/add_1", "op": "BiasAdd", "input": ["resnet_v1_50/block4/unit_2/bottleneck_v1/conv3/BatchNorm/batchnorm_1/add_1/conv", "resnet_v1_50/block4/unit_2/bottleneck_v1/conv3/Conv2D_bias"], "attr": {"T": {"type": "DT_FLOAT"}, "data_format": {"s": "TkhXQw=="}}}, {"name": "resnet_v1_50/block4/unit_2/bottleneck_v1/add", "op": "Add", "input": ["resnet_v1_50/block4/unit_1/bottleneck_v1/Relu", "resnet_v1_50/block4/unit_2/bottleneck_v1/conv3/BatchNorm/batchnorm_1/add_1"], "attr": {"T": {"type": "DT_FLOAT"}}}, {"name": "resnet_v1_50/block4/unit_2/bottleneck_v1/Relu", "op": "Relu", "input": ["resnet_v1_50/block4/unit_2/bottleneck_v1/add"], "attr": {"T": {"type": "DT_FLOAT"}}}, {"name": "resnet_v1_50/block4/unit_3/bottleneck_v1/conv1/BatchNorm/batchnorm_1/add_1/conv", "op": "Conv2D", "input": ["resnet_v1_50/block4/unit_2/bottleneck_v1/Relu", "resnet_v1_50/block4/unit_3/bottleneck_v1/conv1/weights"], "attr": {"padding": {"s": "U0FNRQ=="}, "dilations": {"list": {"i": ["1", "1", "1", "1"]}}, "T": {"type": "DT_FLOAT"}, "data_format": {"s": "TkhXQw=="}, "strides": {"list": {"i": ["1", "1", "1", "1"]}}, "use_cudnn_on_gpu": {"b": true}, "explicit_paddings": {"list": {}}}}, {"name": "resnet_v1_50/block4/unit_3/bottleneck_v1/conv1/BatchNorm/batchnorm_1/add_1", "op": "BiasAdd", "input": ["resnet_v1_50/block4/unit_3/bottleneck_v1/conv1/BatchNorm/batchnorm_1/add_1/conv", "resnet_v1_50/block4/unit_3/bottleneck_v1/conv1/Conv2D_bias"], "attr": {"T": {"type": "DT_FLOAT"}, "data_format": {"s": "TkhXQw=="}}}, {"name": "resnet_v1_50/block4/unit_3/bottleneck_v1/conv1/Relu", "op": "Relu", "input": ["resnet_v1_50/block4/unit_3/bottleneck_v1/conv1/BatchNorm/batchnorm_1/add_1"], "attr": {"T": {"type": "DT_FLOAT"}}}, {"name": "resnet_v1_50/block4/unit_3/bottleneck_v1/conv2/BatchNorm/batchnorm_1/add_1/conv", "op": "Conv2D", "input": ["resnet_v1_50/block4/unit_3/bottleneck_v1/conv1/Relu", "resnet_v1_50/block4/unit_3/bottleneck_v1/conv2/weights"], "attr": {"dilations": {"list": {"i": ["2", "2", "1", "1"]}}, "T": {"type": "DT_FLOAT"}, "strides": {"list": {"i": ["1", "1", "1", "1"]}}, "data_format": {"s": "TkhXQw=="}, "explicit_paddings": {"list": {}}, "use_cudnn_on_gpu": {"b": true}, "padding": {"s": "U0FNRQ=="}}}, {"name": "resnet_v1_50/block4/unit_3/bottleneck_v1/conv2/BatchNorm/batchnorm_1/add_1", "op": "BiasAdd", "input": ["resnet_v1_50/block4/unit_3/bottleneck_v1/conv2/BatchNorm/batchnorm_1/add_1/conv", "resnet_v1_50/block4/unit_3/bottleneck_v1/conv2/Conv2D_bias"], "attr": {"data_format": {"s": "TkhXQw=="}, "T": {"type": "DT_FLOAT"}}}, {"name": "resnet_v1_50/block4/unit_3/bottleneck_v1/conv2/Relu", "op": "Relu", "input": ["resnet_v1_50/block4/unit_3/bottleneck_v1/conv2/BatchNorm/batchnorm_1/add_1"], "attr": {"T": {"type": "DT_FLOAT"}}}, {"name": "resnet_v1_50/block4/unit_3/bottleneck_v1/conv3/BatchNorm/batchnorm_1/add_1/conv", "op": "Conv2D", "input": ["resnet_v1_50/block4/unit_3/bottleneck_v1/conv2/Relu", "resnet_v1_50/block4/unit_3/bottleneck_v1/conv3/weights"], "attr": {"dilations": {"list": {"i": ["1", "1", "1", "1"]}}, "T": {"type": "DT_FLOAT"}, "data_format": {"s": "TkhXQw=="}, "strides": {"list": {"i": ["1", "1", "1", "1"]}}, "explicit_paddings": {"list": {}}, "use_cudnn_on_gpu": {"b": true}, "padding": {"s": "U0FNRQ=="}}}, {"name": "resnet_v1_50/block4/unit_3/bottleneck_v1/conv3/BatchNorm/batchnorm_1/add_1", "op": "BiasAdd", "input": ["resnet_v1_50/block4/unit_3/bottleneck_v1/conv3/BatchNorm/batchnorm_1/add_1/conv", "resnet_v1_50/block4/unit_3/bottleneck_v1/conv3/Conv2D_bias"], "attr": {"T": {"type": "DT_FLOAT"}, "data_format": {"s": "TkhXQw=="}}}, {"name": "resnet_v1_50/block4/unit_3/bottleneck_v1/add", "op": "Add", "input": ["resnet_v1_50/block4/unit_2/bottleneck_v1/Relu", "resnet_v1_50/block4/unit_3/bottleneck_v1/conv3/BatchNorm/batchnorm_1/add_1"], "attr": {"T": {"type": "DT_FLOAT"}}}, {"name": "resnet_v1_50/block4/unit_3/bottleneck_v1/Relu", "op": "Relu", "input": ["resnet_v1_50/block4/unit_3/bottleneck_v1/add"], "attr": {"T": {"type": "DT_FLOAT"}}}, {"name": "resnet_v1_50/displacement_bwd_2/BiasAdd/conv", "op": "Conv2D", "input": ["resnet_v1_50/block4/unit_3/bottleneck_v1/Relu", "resnet_v1_50/displacement_bwd_2/weights"], "attr": {"padding": {"s": "U0FNRQ=="}, "dilations": {"list": {"i": ["1", "1", "1", "1"]}}, "T": {"type": "DT_FLOAT"}, "strides": {"list": {"i": ["1", "1", "1", "1"]}}, "data_format": {"s": "TkhXQw=="}, "use_cudnn_on_gpu": {"b": true}, "explicit_paddings": {"list": {}}}}, {"name": "resnet_v1_50/displacement_fwd_2/BiasAdd/conv", "op": "Conv2D", "input": ["resnet_v1_50/block4/unit_3/bottleneck_v1/Relu", "resnet_v1_50/displacement_fwd_2/weights"], "attr": {"strides": {"list": {"i": ["1", "1", "1", "1"]}}, "data_format": {"s": "TkhXQw=="}, "explicit_paddings": {"list": {}}, "use_cudnn_on_gpu": {"b": true}, "padding": {"s": "U0FNRQ=="}, "dilations": {"list": {"i": ["1", "1", "1", "1"]}}, "T": {"type": "DT_FLOAT"}}}, {"name": "float_heatmaps/conv", "op": "Conv2D", "input": ["resnet_v1_50/block4/unit_3/bottleneck_v1/Relu", "resnet_v1_50/heatmap_2/weights"], "attr": {"padding": {"s": "U0FNRQ=="}, "dilations": {"list": {"i": ["1", "1", "1", "1"]}}, "T": {"type": "DT_FLOAT"}, "strides": {"list": {"i": ["1", "1", "1", "1"]}}, "data_format": {"s": "TkhXQw=="}, "use_cudnn_on_gpu": {"b": true}, "explicit_paddings": {"list": {}}}}, {"name": "float_long_offsets/conv", "op": "Conv2D", "input": ["resnet_v1_50/block4/unit_3/bottleneck_v1/Relu", "resnet_v1_50/embedding_2/weights"], "attr": {"padding": {"s": "U0FNRQ=="}, "dilations": {"list": {"i": ["1", "1", "1", "1"]}}, "T": {"type": "DT_FLOAT"}, "data_format": {"s": "TkhXQw=="}, "strides": {"list": {"i": ["1", "1", "1", "1"]}}, "use_cudnn_on_gpu": {"b": true}, "explicit_paddings": {"list": {}}}}, {"name": "float_short_offsets/conv", "op": "Conv2D", "input": ["resnet_v1_50/block4/unit_3/bottleneck_v1/Relu", "resnet_v1_50/offset_2/weights"], "attr": {"dilations": {"list": {"i": ["1", "1", "1", "1"]}}, "T": {"type": "DT_FLOAT"}, "strides": {"list": {"i": ["1", "1", "1", "1"]}}, "data_format": {"s": "TkhXQw=="}, "explicit_paddings": {"list": {}}, "use_cudnn_on_gpu": {"b": true}, "padding": {"s": "U0FNRQ=="}}}, {"name": "float_part_heatmaps/conv", "op": "Conv2D", "input": ["resnet_v1_50/block4/unit_3/bottleneck_v1/Relu", "resnet_v1_50/part_heatmap_2/weights"], "attr": {"dilations": {"list": {"i": ["1", "1", "1", "1"]}}, "T": {"type": "DT_FLOAT"}, "data_format": {"s": "TkhXQw=="}, "strides": {"list": {"i": ["1", "1", "1", "1"]}}, "use_cudnn_on_gpu": {"b": true}, "explicit_paddings": {"list": {}}, "padding": {"s": "U0FNRQ=="}}}, {"name": "add_1/conv", "op": "Conv2D", "input": ["resnet_v1_50/block4/unit_3/bottleneck_v1/Relu", "resnet_v1_50/part_offset_2/weights"], "attr": {"data_format": {"s": "TkhXQw=="}, "strides": {"list": {"i": ["1", "1", "1", "1"]}}, "use_cudnn_on_gpu": {"b": true}, "explicit_paddings": {"list": {}}, "padding": {"s": "U0FNRQ=="}, "dilations": {"list": {"i": ["1", "1", "1", "1"]}}, "T": {"type": "DT_FLOAT"}}}, {"name": "float_segments/conv", "op": "Conv2D", "input": ["resnet_v1_50/block4/unit_3/bottleneck_v1/Relu", "resnet_v1_50/segment_2/weights"], "attr": {"padding": {"s": "U0FNRQ=="}, "dilations": {"list": {"i": ["1", "1", "1", "1"]}}, "T": {"type": "DT_FLOAT"}, "data_format": {"s": "TkhXQw=="}, "strides": {"list": {"i": ["1", "1", "1", "1"]}}, "use_cudnn_on_gpu": {"b": true}, "explicit_paddings": {"list": {}}}}, {"name": "resnet_v1_50/displacement_bwd_2/BiasAdd", "op": "BiasAdd", "input": ["resnet_v1_50/displacement_bwd_2/BiasAdd/conv", "resnet_v1_50/displacement_bwd_2/Conv2D_bias"], "attr": {"T": {"type": "DT_FLOAT"}, "data_format": {"s": "TkhXQw=="}}}, {"name": "resnet_v1_50/displacement_fwd_2/BiasAdd", "op": "BiasAdd", "input": ["resnet_v1_50/displacement_fwd_2/BiasAdd/conv", "resnet_v1_50/displacement_fwd_2/Conv2D_bias"], "attr": {"T": {"type": "DT_FLOAT"}, "data_format": {"s": "TkhXQw=="}}}, {"name": "float_heatmaps", "op": "BiasAdd", "input": ["float_heatmaps/conv", "resnet_v1_50/heatmap_2/Conv2D_bias"], "attr": {"T": {"type": "DT_FLOAT"}, "data_format": {"s": "TkhXQw=="}}}, {"name": "float_long_offsets", "op": "BiasAdd", "input": ["float_long_offsets/conv", "resnet_v1_50/embedding_2/Conv2D_bias"], "attr": {"T": {"type": "DT_FLOAT"}, "data_format": {"s": "TkhXQw=="}}}, {"name": "float_short_offsets", "op": "BiasAdd", "input": ["float_short_offsets/conv", "resnet_v1_50/offset_2/Conv2D_bias"], "attr": {"T": {"type": "DT_FLOAT"}, "data_format": {"s": "TkhXQw=="}}}, {"name": "float_part_heatmaps", "op": "BiasAdd", "input": ["float_part_heatmaps/conv", "resnet_v1_50/part_heatmap_2/Conv2D_bias"], "attr": {"data_format": {"s": "TkhXQw=="}, "T": {"type": "DT_FLOAT"}}}, {"name": "add_1", "op": "BiasAdd", "input": ["add_1/conv", "resnet_v1_50/part_offset_2/Conv2D_bias"], "attr": {"T": {"type": "DT_FLOAT"}, "data_format": {"s": "TkhXQw=="}}}, {"name": "float_segments", "op": "BiasAdd", "input": ["float_segments/conv", "resnet_v1_50/segment_2/Conv2D_bias"], "attr": {"T": {"type": "DT_FLOAT"}, "data_format": {"s": "TkhXQw=="}}}, {"name": "clip_by_value/Minimum", "op": "Minimum", "input": ["add_1", "clip_by_value/Minimum/y"], "attr": {"T": {"type": "DT_FLOAT"}}}, {"name": "float_part_offsets", "op": "Maximum", "input": ["clip_by_value/Minimum", "clip_by_value/y"], "attr": {"T": {"type": "DT_FLOAT"}}}], "library": {}, "versions": {"producer": 114}}, "weightsManifest": [{"paths": ["group1-shard1of6.bin", "group1-shard2of6.bin", "group1-shard3of6.bin", "group1-shard4of6.bin", "group1-shard5of6.bin", "group1-shard6of6.bin"], "weights": [{"name": "resnet_v1_50/Pad/paddings", "shape": [4, 2], "dtype": "int32", "quantization": {"min": -0.0, "scale": 0.011764705882352941, "dtype": "uint8"}}, {"name": "resnet_v1_50/conv1/weights", "shape": [7, 7, 3, 64], "dtype": "float32", "quantization": {"min": -0.05814554936745587, "scale": 0.00044049658611708994, "dtype": "uint8"}}, {"name": "resnet_v1_50/conv1/Conv2D_bias", "shape": [64], "dtype": "float32", "quantization": {"min": -3.517967134363511, "scale": 0.02443032732196883, "dtype": "uint8"}}, {"name": "resnet_v1_50/Pad_1/paddings", "shape": [4, 2], "dtype": "int32", "quantization": {"min": -0.0, "scale": 0.00392156862745098, "dtype": "uint8"}}, {"name": "resnet_v1_50/block1/unit_1/bottleneck_v1/shortcut/weights", "shape": [1, 1, 64, 256], "dtype": "float32", "quantization": {"min": -3.038227523074431, "scale": 0.01910834920172598, "dtype": "uint8"}}, {"name": "resnet_v1_50/block1/unit_1/bottleneck_v1/shortcut/Conv2D_bias", "shape": [256], "dtype": "float32", "quantization": {"min": -5.123042671353209, "scale": 0.05227594562605316, "dtype": "uint8"}}, {"name": "resnet_v1_50/block1/unit_1/bottleneck_v1/conv1/weights", "shape": [1, 1, 64, 64], "dtype": "float32", "quantization": {"min": -3.1310002359689455, "scale": 0.017891429919822545, "dtype": "uint8"}}, {"name": "resnet_v1_50/block1/unit_1/bottleneck_v1/conv1/Conv2D_bias", "shape": [64], "dtype": "float32", "quantization": {"min": -4.212178376141716, "scale": 0.03424535265155867, "dtype": "uint8"}}, {"name": "resnet_v1_50/block1/unit_1/bottleneck_v1/conv2/weights", "shape": [3, 3, 64, 64], "dtype": "float32", "quantization": {"min": -0.5812862845028148, "scale": 0.004036710309047325, "dtype": "uint8"}}, {"name": "resnet_v1_50/block1/unit_1/bottleneck_v1/conv2/Conv2D_bias", "shape": [64], "dtype": "float32", "quantization": {"min": -2.5214492180768184, "scale": 0.029319176954381607, "dtype": "uint8"}}, {"name": "resnet_v1_50/block1/unit_1/bottleneck_v1/conv3/weights", "shape": [1, 1, 64, 256], "dtype": "float32", "quantization": {"min": -3.322698043374454, "scale": 0.024077522053438074, "dtype": "uint8"}}, {"name": "resnet_v1_50/block1/unit_1/bottleneck_v1/conv3/Conv2D_bias", "shape": [256], "dtype": "float32", "quantization": {"min": -4.538719511967079, "scale": 0.044065237980262906, "dtype": "uint8"}}, {"name": "resnet_v1_50/block1/unit_2/bottleneck_v1/conv1/weights", "shape": [1, 1, 256, 64], "dtype": "float32", "quantization": {"min": -0.7443284399369184, "scale": 0.004771336153441785, "dtype": "uint8"}}, {"name": "resnet_v1_50/block1/unit_2/bottleneck_v1/conv1/Conv2D_bias", "shape": [64], "dtype": "float32", "quantization": {"min": -2.857707104963415, "scale": 0.019440184387506224, "dtype": "uint8"}}, {"name": "resnet_v1_50/block1/unit_2/bottleneck_v1/conv2/weights", "shape": [3, 3, 64, 64], "dtype": "float32", "quantization": {"min": -0.6401345631655525, "scale": 0.006809942161335665, "dtype": "uint8"}}, {"name": "resnet_v1_50/block1/unit_2/bottleneck_v1/conv2/Conv2D_bias", "shape": [64], "dtype": "float32", "quantization": {"min": -2.5453005874858183, "scale": 0.016008179795508292, "dtype": "uint8"}}, {"name": "resnet_v1_50/block1/unit_2/bottleneck_v1/conv3/weights", "shape": [1, 1, 64, 256], "dtype": "float32", "quantization": {"min": -2.3497968505410585, "scale": 0.01910403943529316, "dtype": "uint8"}}, {"name": "resnet_v1_50/block1/unit_2/bottleneck_v1/conv3/Conv2D_bias", "shape": [256], "dtype": "float32", "quantization": {"min": -4.626421790029489, "scale": 0.03104981067133885, "dtype": "uint8"}}, {"name": "resnet_v1_50/block1/unit_3/bottleneck_v1/conv1/weights", "shape": [1, 1, 256, 64], "dtype": "float32", "quantization": {"min": -1.0558980724390816, "scale": 0.005833691007950727, "dtype": "uint8"}}, {"name": "resnet_v1_50/block1/unit_3/bottleneck_v1/conv1/Conv2D_bias", "shape": [64], "dtype": "float32", "quantization": {"min": -2.892574669333065, "scale": 0.015065493069443048, "dtype": "uint8"}}, {"name": "resnet_v1_50/block1/unit_3/bottleneck_v1/conv2/weights", "shape": [3, 3, 64, 64], "dtype": "float32", "quantization": {"min": -0.4425062560567669, "scale": 0.003540050048454135, "dtype": "uint8"}}, {"name": "resnet_v1_50/block1/unit_3/bottleneck_v1/conv2/Conv2D_bias", "shape": [64], "dtype": "float32", "quantization": {"min": -0.4262218157450358, "scale": 0.007611103852589925, "dtype": "uint8"}}, {"name": "resnet_v1_50/block1/unit_3/bottleneck_v1/conv3/weights", "shape": [1, 1, 64, 256], "dtype": "float32", "quantization": {"min": -1.691604200998942, "scale": 0.013641969362894694, "dtype": "uint8"}}, {"name": "resnet_v1_50/block1/unit_3/bottleneck_v1/conv3/Conv2D_bias", "shape": [256], "dtype": "float32", "quantization": {"min": -1.9034394769107592, "scale": 0.019226661382936962, "dtype": "uint8"}}, {"name": "resnet_v1_50/block2/unit_1/bottleneck_v1/shortcut/weights", "shape": [1, 1, 256, 512], "dtype": "float32", "quantization": {"min": -1.9321632862091065, "scale": 0.012967538833618165, "dtype": "uint8"}}, {"name": "resnet_v1_50/block2/unit_1/bottleneck_v1/shortcut/Conv2D_bias", "shape": [512], "dtype": "float32", "quantization": {"min": -3.434672161177093, "scale": 0.03504767511405197, "dtype": "uint8"}}, {"name": "resnet_v1_50/block2/unit_1/bottleneck_v1/conv1/weights", "shape": [1, 1, 256, 128], "dtype": "float32", "quantization": {"min": -0.76445957959867, "scale": 0.004964023244147207, "dtype": "uint8"}}, {"name": "resnet_v1_50/block2/unit_1/bottleneck_v1/conv1/Conv2D_bias", "shape": [128], "dtype": "float32", "quantization": {"min": -2.392711732901779, "scale": 0.018405474868475224, "dtype": "uint8"}}, {"name": "resnet_v1_50/block2/unit_1/bottleneck_v1/conv2/weights", "shape": [3, 3, 128, 128], "dtype": "float32", "quantization": {"min": -0.5329801776829888, "scale": 0.0033732922638163845, "dtype": "uint8"}}, {"name": "resnet_v1_50/block2/unit_1/bottleneck_v1/conv2/Conv2D_bias", "shape": [128], "dtype": "float32", "quantization": {"min": -2.3551189310410443, "scale": 0.028037130131441004, "dtype": "uint8"}}, {"name": "resnet_v1_50/block2/unit_1/bottleneck_v1/conv3/weights", "shape": [1, 1, 128, 512], "dtype": "float32", "quantization": {"min": -3.2156990799249385, "scale": 0.025122649061913582, "dtype": "uint8"}}, {"name": "resnet_v1_50/block2/unit_1/bottleneck_v1/conv3/Conv2D_bias", "shape": [512], "dtype": "float32", "quantization": {"min": -3.9080771782818964, "scale": 0.030295171924665864, "dtype": "uint8"}}, {"name": "resnet_v1_50/block2/unit_2/bottleneck_v1/conv1/weights", "shape": [1, 1, 512, 128], "dtype": "float32", "quantization": {"min": -0.3196309433263891, "scale": 0.0023161662559883266, "dtype": "uint8"}}, {"name": "resnet_v1_50/block2/unit_2/bottleneck_v1/conv1/Conv2D_bias", "shape": [128], "dtype": "float32", "quantization": {"min": -3.3386543498319736, "scale": 0.01896962698768167, "dtype": "uint8"}}, {"name": "resnet_v1_50/block2/unit_2/bottleneck_v1/conv2/weights", "shape": [3, 3, 128, 128], "dtype": "float32", "quantization": {"min": -0.6487522312239105, "scale": 0.005317641239540249, "dtype": "uint8"}}, {"name": "resnet_v1_50/block2/unit_2/bottleneck_v1/conv2/Conv2D_bias", "shape": [128], "dtype": "float32", "quantization": {"min": -1.17984343884038, "scale": 0.010534316418217678, "dtype": "uint8"}}, {"name": "resnet_v1_50/block2/unit_2/bottleneck_v1/conv3/weights", "shape": [1, 1, 128, 512], "dtype": "float32", "quantization": {"min": -2.4867263401255886, "scale": 0.018420195112041397, "dtype": "uint8"}}, {"name": "resnet_v1_50/block2/unit_2/bottleneck_v1/conv3/Conv2D_bias", "shape": [512], "dtype": "float32", "quantization": {"min": -1.9945350301031972, "scale": 0.019364417767992206, "dtype": "uint8"}}, {"name": "resnet_v1_50/block2/unit_3/bottleneck_v1/conv1/weights", "shape": [1, 1, 512, 128], "dtype": "float32", "quantization": {"min": -0.3362847436876858, "scale": 0.004873691937502693, "dtype": "uint8"}}, {"name": "resnet_v1_50/block2/unit_3/bottleneck_v1/conv1/Conv2D_bias", "shape": [128], "dtype": "float32", "quantization": {"min": -2.6479692346909465, "scale": 0.01838867524090935, "dtype": "uint8"}}, {"name": "resnet_v1_50/block2/unit_3/bottleneck_v1/conv2/weights", "shape": [3, 3, 128, 128], "dtype": "float32", "quantization": {"min": -0.6950816537819657, "scale": 0.005992083222258325, "dtype": "uint8"}}, {"name": "resnet_v1_50/block2/unit_3/bottleneck_v1/conv2/Conv2D_bias", "shape": [128], "dtype": "float32", "quantization": {"min": -2.7482213413014134, "scale": 0.01501760295793122, "dtype": "uint8"}}, {"name": "resnet_v1_50/block2/unit_3/bottleneck_v1/conv3/weights", "shape": [1, 1, 128, 512], "dtype": "float32", "quantization": {"min": -4.517996660868327, "scale": 0.032503573099772136, "dtype": "uint8"}}, {"name": "resnet_v1_50/block2/unit_3/bottleneck_v1/conv3/Conv2D_bias", "shape": [512], "dtype": "float32", "quantization": {"min": -1.886583724676394, "scale": 0.018140228121888403, "dtype": "uint8"}}, {"name": "resnet_v1_50/block2/unit_4/bottleneck_v1/conv1/weights", "shape": [1, 1, 512, 128], "dtype": "float32", "quantization": {"min": -0.5116224267903496, "scale": 0.004693783732021556, "dtype": "uint8"}}, {"name": "resnet_v1_50/block2/unit_4/bottleneck_v1/conv1/Conv2D_bias", "shape": [128], "dtype": "float32", "quantization": {"min": -3.131884219599705, "scale": 0.015659421097998526, "dtype": "uint8"}}, {"name": "resnet_v1_50/block2/unit_4/bottleneck_v1/conv2/weights", "shape": [3, 3, 128, 128], "dtype": "float32", "quantization": {"min": -0.361227658215691, "scale": 0.0032252469483543844, "dtype": "uint8"}}, {"name": "resnet_v1_50/block2/unit_4/bottleneck_v1/conv2/Conv2D_bias", "shape": [128], "dtype": "float32", "quantization": {"min": -1.0463474498075598, "scale": 0.011626082775639552, "dtype": "uint8"}}, {"name": "resnet_v1_50/block2/unit_4/bottleneck_v1/conv3/weights", "shape": [1, 1, 128, 512], "dtype": "float32", "quantization": {"min": -1.5036548137664794, "scale": 0.01474171386045568, "dtype": "uint8"}}, {"name": "resnet_v1_50/block2/unit_4/bottleneck_v1/conv3/Conv2D_bias", "shape": [512], "dtype": "float32", "quantization": {"min": -2.6630008286120845, "scale": 0.022008271310843673, "dtype": "uint8"}}, {"name": "resnet_v1_50/block3/unit_1/bottleneck_v1/shortcut/weights", "shape": [1, 1, 512, 1024], "dtype": "float32", "quantization": {"min": -0.826341895496144, "scale": 0.009181576616623822, "dtype": "uint8"}}, {"name": "resnet_v1_50/block3/unit_1/bottleneck_v1/shortcut/Conv2D_bias", "shape": [1024], "dtype": "float32", "quantization": {"min": -3.239768196554745, "scale": 0.026998068304622876, "dtype": "uint8"}}, {"name": "resnet_v1_50/block3/unit_1/bottleneck_v1/conv1/weights", "shape": [1, 1, 512, 256], "dtype": "float32", "quantization": {"min": -0.4667618910471598, "scale": 0.00343207272828794, "dtype": "uint8"}}, {"name": "resnet_v1_50/block3/unit_1/bottleneck_v1/conv1/Conv2D_bias", "shape": [256], "dtype": "float32", "quantization": {"min": -2.4173999234741808, "scale": 0.014830674377142214, "dtype": "uint8"}}, {"name": "resnet_v1_50/block3/unit_1/bottleneck_v1/conv2/weights", "shape": [3, 3, 256, 256], "dtype": "float32", "quantization": {"min": -0.45569914509268367, "scale": 0.003861857161802404, "dtype": "uint8"}}, {"name": "resnet_v1_50/block3/unit_1/bottleneck_v1/conv2/Conv2D_bias", "shape": [256], "dtype": "float32", "quantization": {"min": -2.361607219658646, "scale": 0.020535714953553445, "dtype": "uint8"}}, {"name": "resnet_v1_50/block3/unit_1/bottleneck_v1/conv3/weights", "shape": [1, 1, 256, 1024], "dtype": "float32", "quantization": {"min": -8.99241548426011, "scale": 0.054499487783394605, "dtype": "uint8"}}, {"name": "resnet_v1_50/block3/unit_1/bottleneck_v1/conv3/Conv2D_bias", "shape": [1024], "dtype": "float32", "quantization": {"min": -2.8060187311733467, "scale": 0.026723987915936637, "dtype": "uint8"}}, {"name": "resnet_v1_50/block3/unit_2/bottleneck_v1/conv1/weights", "shape": [1, 1, 1024, 256], "dtype": "float32", "quantization": {"min": -0.24498264918140336, "scale": 0.0024998229508306465, "dtype": "uint8"}}, {"name": "resnet_v1_50/block3/unit_2/bottleneck_v1/conv1/Conv2D_bias", "shape": [256], "dtype": "float32", "quantization": {"min": -2.2793642661150764, "scale": 0.017010181090411018, "dtype": "uint8"}}, {"name": "resnet_v1_50/block3/unit_2/bottleneck_v1/conv2/weights", "shape": [3, 3, 256, 256], "dtype": "float32", "quantization": {"min": -0.4650221712449018, "scale": 0.004514778361600988, "dtype": "uint8"}}, {"name": "resnet_v1_50/block3/unit_2/bottleneck_v1/conv2/Conv2D_bias", "shape": [256], "dtype": "float32", "quantization": {"min": -2.051197867299996, "scale": 0.019350923276415057, "dtype": "uint8"}}, {"name": "resnet_v1_50/block3/unit_2/bottleneck_v1/conv3/weights", "shape": [1, 1, 256, 1024], "dtype": "float32", "quantization": {"min": -4.644602529207866, "scale": 0.024837446680255965, "dtype": "uint8"}}, {"name": "resnet_v1_50/block3/unit_2/bottleneck_v1/conv3/Conv2D_bias", "shape": [1024], "dtype": "float32", "quantization": {"min": -2.439473398993997, "scale": 0.018480859083287855, "dtype": "uint8"}}, {"name": "resnet_v1_50/block3/unit_3/bottleneck_v1/conv1/weights", "shape": [1, 1, 1024, 256], "dtype": "float32", "quantization": {"min": -0.3502038696232964, "scale": 0.0027793957906610827, "dtype": "uint8"}}, {"name": "resnet_v1_50/block3/unit_3/bottleneck_v1/conv1/Conv2D_bias", "shape": [256], "dtype": "float32", "quantization": {"min": -2.6226558012120864, "scale": 0.01365966563131295, "dtype": "uint8"}}, {"name": "resnet_v1_50/block3/unit_3/bottleneck_v1/conv2/weights", "shape": [3, 3, 256, 256], "dtype": "float32", "quantization": {"min": -0.5618335798674938, "scale": 0.0043893248427147955, "dtype": "uint8"}}, {"name": "resnet_v1_50/block3/unit_3/bottleneck_v1/conv2/Conv2D_bias", "shape": [256], "dtype": "float32", "quantization": {"min": -1.898306503015406, "scale": 0.012571566245135139, "dtype": "uint8"}}, {"name": "resnet_v1_50/block3/unit_3/bottleneck_v1/conv3/weights", "shape": [1, 1, 256, 1024], "dtype": "float32", "quantization": {"min": -1.2836026864893297, "scale": 0.011259672688502892, "dtype": "uint8"}}, {"name": "resnet_v1_50/block3/unit_3/bottleneck_v1/conv3/Conv2D_bias", "shape": [1024], "dtype": "float32", "quantization": {"min": -2.18594747431138, "scale": 0.014572983162075866, "dtype": "uint8"}}, {"name": "resnet_v1_50/block3/unit_4/bottleneck_v1/conv1/weights", "shape": [1, 1, 1024, 256], "dtype": "float32", "quantization": {"min": -0.1936130208711998, "scale": 0.0018797380667106777, "dtype": "uint8"}}, {"name": "resnet_v1_50/block3/unit_4/bottleneck_v1/conv1/Conv2D_bias", "shape": [256], "dtype": "float32", "quantization": {"min": -2.23369045678307, "scale": 0.01247871763565961, "dtype": "uint8"}}, {"name": "resnet_v1_50/block3/unit_4/bottleneck_v1/conv2/weights", "shape": [3, 3, 256, 256], "dtype": "float32", "quantization": {"min": -0.6383956638036989, "scale": 0.005148352127449185, "dtype": "uint8"}}, {"name": "resnet_v1_50/block3/unit_4/bottleneck_v1/conv2/Conv2D_bias", "shape": [256], "dtype": "float32", "quantization": {"min": -2.8944231818704047, "scale": 0.0164455862606273, "dtype": "uint8"}}, {"name": "resnet_v1_50/block3/unit_4/bottleneck_v1/conv3/weights", "shape": [1, 1, 256, 1024], "dtype": "float32", "quantization": {"min": -2.8322972522062413, "scale": 0.020523893131929285, "dtype": "uint8"}}, {"name": "resnet_v1_50/block3/unit_4/bottleneck_v1/conv3/Conv2D_bias", "shape": [1024], "dtype": "float32", "quantization": {"min": -1.4113646722307394, "scale": 0.011664170844882143, "dtype": "uint8"}}, {"name": "resnet_v1_50/block3/unit_5/bottleneck_v1/conv1/weights", "shape": [1, 1, 1024, 256], "dtype": "float32", "quantization": {"min": -0.23620618909013036, "scale": 0.0023620618909013036, "dtype": "uint8"}}, {"name": "resnet_v1_50/block3/unit_5/bottleneck_v1/conv1/Conv2D_bias", "shape": [256], "dtype": "float32", "quantization": {"min": -1.7690541286094514, "scale": 0.009614424612007889, "dtype": "uint8"}}, {"name": "resnet_v1_50/block3/unit_5/bottleneck_v1/conv2/weights", "shape": [3, 3, 256, 256], "dtype": "float32", "quantization": {"min": -0.8797178904215495, "scale": 0.006468513900158452, "dtype": "uint8"}}, {"name": "resnet_v1_50/block3/unit_5/bottleneck_v1/conv2/Conv2D_bias", "shape": [256], "dtype": "float32", "quantization": {"min": -2.29680348517848, "scale": 0.011839193222569485, "dtype": "uint8"}}, {"name": "resnet_v1_50/block3/unit_5/bottleneck_v1/conv3/weights", "shape": [1, 1, 256, 1024], "dtype": "float32", "quantization": {"min": -1.1487538534052233, "scale": 0.009818409003463447, "dtype": "uint8"}}, {"name": "resnet_v1_50/block3/unit_5/bottleneck_v1/conv3/Conv2D_bias", "shape": [1024], "dtype": "float32", "quantization": {"min": -3.7496106820947985, "scale": 0.02048967585844152, "dtype": "uint8"}}, {"name": "resnet_v1_50/block3/unit_6/bottleneck_v1/conv1/weights", "shape": [1, 1, 1024, 256], "dtype": "float32", "quantization": {"min": -0.19822162424816805, "scale": 0.0025413028749765136, "dtype": "uint8"}}, {"name": "resnet_v1_50/block3/unit_6/bottleneck_v1/conv1/Conv2D_bias", "shape": [256], "dtype": "float32", "quantization": {"min": -1.6884761978598202, "scale": 0.010233189077938304, "dtype": "uint8"}}, {"name": "resnet_v1_50/block3/unit_6/bottleneck_v1/conv2/weights", "shape": [3, 3, 256, 256], "dtype": "float32", "quantization": {"min": -0.9329867337264267, "scale": 0.006178720090903488, "dtype": "uint8"}}, {"name": "resnet_v1_50/block3/unit_6/bottleneck_v1/conv2/Conv2D_bias", "shape": [256], "dtype": "float32", "quantization": {"min": -1.8449403529073678, "scale": 0.011114098511490167, "dtype": "uint8"}}, {"name": "resnet_v1_50/block3/unit_6/bottleneck_v1/conv3/weights", "shape": [1, 1, 256, 1024], "dtype": "float32", "quantization": {"min": -1.0496846395380357, "scale": 0.0108214911292581, "dtype": "uint8"}}, {"name": "resnet_v1_50/block3/unit_6/bottleneck_v1/conv3/Conv2D_bias", "shape": [1024], "dtype": "float32", "quantization": {"min": -2.4690380937912884, "scale": 0.018564196193919462, "dtype": "uint8"}}, {"name": "resnet_v1_50/block4/unit_1/bottleneck_v1/shortcut/weights", "shape": [1, 1, 1024, 2048], "dtype": "float32", "quantization": {"min": -2.388173161768446, "scale": 0.01647015973633411, "dtype": "uint8"}}, {"name": "resnet_v1_50/block4/unit_1/bottleneck_v1/shortcut/Conv2D_bias", "shape": [2048], "dtype": "float32", "quantization": {"min": -4.91638375824573, "scale": 0.03964825611488492, "dtype": "uint8"}}, {"name": "resnet_v1_50/block4/unit_1/bottleneck_v1/conv1/weights", "shape": [1, 1, 1024, 512], "dtype": "float32", "quantization": {"min": -0.30571332772572835, "scale": 0.0025690195607204064, "dtype": "uint8"}}, {"name": "resnet_v1_50/block4/unit_1/bottleneck_v1/conv1/Conv2D_bias", "shape": [512], "dtype": "float32", "quantization": {"min": -2.3348409451690375, "scale": 0.01228863655352125, "dtype": "uint8"}}, {"name": "resnet_v1_50/block4/unit_1/bottleneck_v1/conv2/weights", "shape": [3, 3, 512, 512], "dtype": "float32", "quantization": {"min": -0.38967472151214, "scale": 0.0030443337618135937, "dtype": "uint8"}}, {"name": "resnet_v1_50/block4/unit_1/bottleneck_v1/conv2/Conv2D_bias", "shape": [512], "dtype": "float32", "quantization": {"min": -1.7060350904277728, "scale": 0.017060350904277728, "dtype": "uint8"}}, {"name": "resnet_v1_50/block4/unit_1/bottleneck_v1/conv3/weights", "shape": [1, 1, 512, 2048], "dtype": "float32", "quantization": {"min": -4.451236240536559, "scale": 0.03346794165816962, "dtype": "uint8"}}, {"name": "resnet_v1_50/block4/unit_1/bottleneck_v1/conv3/Conv2D_bias", "shape": [2048], "dtype": "float32", "quantization": {"min": -6.217897489959118, "scale": 0.04288205165489047, "dtype": "uint8"}}, {"name": "resnet_v1_50/block4/unit_2/bottleneck_v1/conv1/weights", "shape": [1, 1, 2048, 512], "dtype": "float32", "quantization": {"min": -0.11183074467322406, "scale": 0.0010354698580854079, "dtype": "uint8"}}, {"name": "resnet_v1_50/block4/unit_2/bottleneck_v1/conv1/Conv2D_bias", "shape": [512], "dtype": "float32", "quantization": {"min": -3.4004844497231876, "scale": 0.017438381793452244, "dtype": "uint8"}}, {"name": "resnet_v1_50/block4/unit_2/bottleneck_v1/conv2/weights", "shape": [3, 3, 512, 512], "dtype": "float32", "quantization": {"min": -0.44197256565093995, "scale": 0.0037140551735373104, "dtype": "uint8"}}, {"name": "resnet_v1_50/block4/unit_2/bottleneck_v1/conv2/Conv2D_bias", "shape": [512], "dtype": "float32", "quantization": {"min": -2.2327629257650936, "scale": 0.01488508617176729, "dtype": "uint8"}}, {"name": "resnet_v1_50/block4/unit_2/bottleneck_v1/conv3/weights", "shape": [1, 1, 512, 2048], "dtype": "float32", "quantization": {"min": -6.880338519227271, "scale": 0.05504270815381817, "dtype": "uint8"}}, {"name": "resnet_v1_50/block4/unit_2/bottleneck_v1/conv3/Conv2D_bias", "shape": [2048], "dtype": "float32", "quantization": {"min": -8.432898181092506, "scale": 0.049898805805281096, "dtype": "uint8"}}, {"name": "resnet_v1_50/block4/unit_3/bottleneck_v1/conv1/weights", "shape": [1, 1, 2048, 512], "dtype": "float32", "quantization": {"min": -0.10213257693776898, "scale": 0.0007856352072136075, "dtype": "uint8"}}, {"name": "resnet_v1_50/block4/unit_3/bottleneck_v1/conv1/Conv2D_bias", "shape": [512], "dtype": "float32", "quantization": {"min": -2.91882402008655, "scale": 0.019202789605832566, "dtype": "uint8"}}, {"name": "resnet_v1_50/block4/unit_3/bottleneck_v1/conv2/weights", "shape": [3, 3, 512, 512], "dtype": "float32", "quantization": {"min": -0.7850958197724585, "scale": 0.006488395204731062, "dtype": "uint8"}}, {"name": "resnet_v1_50/block4/unit_3/bottleneck_v1/conv2/Conv2D_bias", "shape": [512], "dtype": "float32", "quantization": {"min": -2.2321012814839682, "scale": 0.01313000753814099, "dtype": "uint8"}}, {"name": "resnet_v1_50/block4/unit_3/bottleneck_v1/conv3/weights", "shape": [1, 1, 512, 2048], "dtype": "float32", "quantization": {"min": -4.733896732330322, "scale": 0.03978064480949851, "dtype": "uint8"}}, {"name": "resnet_v1_50/block4/unit_3/bottleneck_v1/conv3/Conv2D_bias", "shape": [2048], "dtype": "float32", "quantization": {"min": -4.597350530063405, "scale": 0.024324605979171455, "dtype": "uint8"}}, {"name": "resnet_v1_50/displacement_bwd_2/weights", "shape": [1, 1, 2048, 32], "dtype": "float32", "quantization": {"min": -0.9444256822268169, "scale": 0.006093068917592367, "dtype": "uint8"}}, {"name": "resnet_v1_50/displacement_bwd_2/Conv2D_bias", "shape": [32], "dtype": "float32", "quantization": {"min": -0.07654404556926558, "scale": 0.0003697779979191574, "dtype": "uint8"}}, {"name": "resnet_v1_50/displacement_fwd_2/weights", "shape": [1, 1, 2048, 32], "dtype": "float32", "quantization": {"min": -0.45132112152436205, "scale": 0.005187599097981173, "dtype": "uint8"}}, {"name": "resnet_v1_50/displacement_fwd_2/Conv2D_bias", "shape": [32], "dtype": "float32", "quantization": {"min": -0.010197684552301379, "scale": 0.00022661521227336398, "dtype": "uint8"}}, {"name": "resnet_v1_50/heatmap_2/weights", "shape": [1, 1, 2048, 17], "dtype": "float32", "quantization": {"min": -0.14990743655784458, "scale": 0.0011443315767774396, "dtype": "uint8"}}, {"name": "resnet_v1_50/heatmap_2/Conv2D_bias", "shape": [17], "dtype": "float32", "quantization": {"min": -0.1407969444990158, "scale": 0.00039749361720739626, "dtype": "uint8"}}, {"name": "resnet_v1_50/embedding_2/weights", "shape": [1, 1, 2048, 34], "dtype": "float32", "quantization": {"min": -0.8122457006398369, "scale": 0.00629647829953362, "dtype": "uint8"}}, {"name": "resnet_v1_50/embedding_2/Conv2D_bias", "shape": [34], "dtype": "float32", "quantization": {"min": -0.02845168329921423, "scale": 0.00018718212696851468, "dtype": "uint8"}}, {"name": "resnet_v1_50/offset_2/weights", "shape": [1, 1, 2048, 34], "dtype": "float32", "quantization": {"min": -0.87315673828125, "scale": 0.006420270134420956, "dtype": "uint8"}}, {"name": "resnet_v1_50/offset_2/Conv2D_bias", "shape": [34], "dtype": "float32", "quantization": {"min": -0.041769716055954205, "scale": 0.0002677545901022705, "dtype": "uint8"}}, {"name": "resnet_v1_50/part_heatmap_2/weights", "shape": [1, 1, 2048, 24], "dtype": "float32", "quantization": {"min": -0.0981787458062172, "scale": 0.0009175583720207215, "dtype": "uint8"}}, {"name": "resnet_v1_50/part_heatmap_2/Conv2D_bias", "shape": [24], "dtype": "float32", "quantization": {"min": -0.003367903653313132, "scale": 5.262349458301769e-05, "dtype": "uint8"}}, {"name": "resnet_v1_50/part_offset_2/weights", "shape": [1, 1, 2048, 48], "dtype": "float32", "quantization": {"min": -0.07231942345114316, "scale": 0.0005649954957120559, "dtype": "uint8"}}, {"name": "resnet_v1_50/part_offset_2/Conv2D_bias", "shape": [48], "dtype": "float32", "quantization": {"min": 0.49567747116088867, "scale": 3.020646525364296e-05, "dtype": "uint8"}}, {"name": "clip_by_value/Minimum/y", "shape": [], "dtype": "float32", "quantization": {"min": 1.0, "scale": 1.0, "dtype": "uint8"}}, {"name": "clip_by_value/y", "shape": [], "dtype": "float32", "quantization": {"min": 0.0, "scale": 1.0, "dtype": "uint8"}}, {"name": "resnet_v1_50/segment_2/weights", "shape": [1, 1, 2048, 1], "dtype": "float32", "quantization": {"min": -0.5723630797629263, "scale": 0.0032706461700738646, "dtype": "uint8"}}, {"name": "resnet_v1_50/segment_2/Conv2D_bias", "shape": [1], "dtype": "float32", "quantization": {"min": 0.5669653415679932, "scale": 1.0, "dtype": "uint8"}}]}]}